7767517
522 931
Input            data                     0 1 data
Convolution      /Conv                    1 1 data /Conv_output_0 0=32 1=3 4=1 5=1 6=864
Split            splitncnn_0              1 8 /Conv_output_0 /Conv_output_0_splitncnn_0 /Conv_output_0_splitncnn_1 /Conv_output_0_splitncnn_2 /Conv_output_0_splitncnn_3 /Conv_output_0_splitncnn_4 /Conv_output_0_splitncnn_5 /Conv_output_0_splitncnn_6 /Conv_output_0_splitncnn_7
Convolution      /Conv_1                  1 1 /Conv_output_0_splitncnn_7 /LeakyRelu_output_0 0=32 1=3 4=1 5=1 6=9216 9=2 -23310=1,2.000000e-01
Split            splitncnn_1              1 4 /LeakyRelu_output_0 /LeakyRelu_output_0_splitncnn_0 /LeakyRelu_output_0_splitncnn_1 /LeakyRelu_output_0_splitncnn_2 /LeakyRelu_output_0_splitncnn_3
Concat           /Concat                  2 1 /Conv_output_0_splitncnn_6 /LeakyRelu_output_0_splitncnn_3 /Concat_output_0
Convolution      /Conv_2                  1 1 /Concat_output_0 /LeakyRelu_1_output_0 0=32 1=3 4=1 5=1 6=18432 9=2 -23310=1,2.000000e-01
Split            splitncnn_2              1 3 /LeakyRelu_1_output_0 /LeakyRelu_1_output_0_splitncnn_0 /LeakyRelu_1_output_0_splitncnn_1 /LeakyRelu_1_output_0_splitncnn_2
Concat           /Concat_1                3 1 /Conv_output_0_splitncnn_5 /LeakyRelu_output_0_splitncnn_2 /LeakyRelu_1_output_0_splitncnn_2 /Concat_1_output_0
Convolution      /Conv_3                  1 1 /Concat_1_output_0 /LeakyRelu_2_output_0 0=32 1=3 4=1 5=1 6=27648 9=2 -23310=1,2.000000e-01
Split            splitncnn_3              1 2 /LeakyRelu_2_output_0 /LeakyRelu_2_output_0_splitncnn_0 /LeakyRelu_2_output_0_splitncnn_1
Concat           /Concat_2                4 1 /Conv_output_0_splitncnn_4 /LeakyRelu_output_0_splitncnn_1 /LeakyRelu_1_output_0_splitncnn_1 /LeakyRelu_2_output_0_splitncnn_1 /Concat_2_output_0
Convolution      /Conv_4                  1 1 /Concat_2_output_0 /LeakyRelu_3_output_0 0=32 1=3 4=1 5=1 6=36864 9=2 -23310=1,2.000000e-01
Concat           /Concat_3                5 1 /Conv_output_0_splitncnn_3 /LeakyRelu_output_0_splitncnn_0 /LeakyRelu_1_output_0_splitncnn_0 /LeakyRelu_2_output_0_splitncnn_0 /LeakyRelu_3_output_0 /Concat_3_output_0
Convolution      /Conv_5                  1 1 /Concat_3_output_0 /Conv_5_output_0 0=32 1=3 4=1 5=1 6=46080
Eltwise          /Add                     2 1 /Conv_5_output_0 /Conv_output_0_splitncnn_2 /Add_output_0 0=1 -23301=2,2.000000e-01,1.000000e+00
Split            splitncnn_4              1 6 /Add_output_0 /Add_output_0_splitncnn_0 /Add_output_0_splitncnn_1 /Add_output_0_splitncnn_2 /Add_output_0_splitncnn_3 /Add_output_0_splitncnn_4 /Add_output_0_splitncnn_5
Convolution      /Conv_6                  1 1 /Add_output_0_splitncnn_5 /LeakyRelu_4_output_0 0=32 1=3 4=1 5=1 6=9216 9=2 -23310=1,2.000000e-01
Split            splitncnn_5              1 4 /LeakyRelu_4_output_0 /LeakyRelu_4_output_0_splitncnn_0 /LeakyRelu_4_output_0_splitncnn_1 /LeakyRelu_4_output_0_splitncnn_2 /LeakyRelu_4_output_0_splitncnn_3
Concat           /Concat_4                2 1 /Add_output_0_splitncnn_4 /LeakyRelu_4_output_0_splitncnn_3 /Concat_4_output_0
Convolution      /Conv_7                  1 1 /Concat_4_output_0 /LeakyRelu_5_output_0 0=32 1=3 4=1 5=1 6=18432 9=2 -23310=1,2.000000e-01
Split            splitncnn_6              1 3 /LeakyRelu_5_output_0 /LeakyRelu_5_output_0_splitncnn_0 /LeakyRelu_5_output_0_splitncnn_1 /LeakyRelu_5_output_0_splitncnn_2
Concat           /Concat_5                3 1 /Add_output_0_splitncnn_3 /LeakyRelu_4_output_0_splitncnn_2 /LeakyRelu_5_output_0_splitncnn_2 /Concat_5_output_0
Convolution      /Conv_8                  1 1 /Concat_5_output_0 /LeakyRelu_6_output_0 0=32 1=3 4=1 5=1 6=27648 9=2 -23310=1,2.000000e-01
Split            splitncnn_7              1 2 /LeakyRelu_6_output_0 /LeakyRelu_6_output_0_splitncnn_0 /LeakyRelu_6_output_0_splitncnn_1
Concat           /Concat_6                4 1 /Add_output_0_splitncnn_2 /LeakyRelu_4_output_0_splitncnn_1 /LeakyRelu_5_output_0_splitncnn_1 /LeakyRelu_6_output_0_splitncnn_1 /Concat_6_output_0
Convolution      /Conv_9                  1 1 /Concat_6_output_0 /LeakyRelu_7_output_0 0=32 1=3 4=1 5=1 6=36864 9=2 -23310=1,2.000000e-01
Concat           /Concat_7                5 1 /Add_output_0_splitncnn_1 /LeakyRelu_4_output_0_splitncnn_0 /LeakyRelu_5_output_0_splitncnn_0 /LeakyRelu_6_output_0_splitncnn_0 /LeakyRelu_7_output_0 /Concat_7_output_0
Convolution      /Conv_10                 1 1 /Concat_7_output_0 /Conv_10_output_0 0=32 1=3 4=1 5=1 6=46080
Eltwise          /Add_1                   2 1 /Conv_10_output_0 /Add_output_0_splitncnn_0 /Add_1_output_0 0=1 -23301=2,2.000000e-01,1.000000e+00
Split            splitncnn_8              1 6 /Add_1_output_0 /Add_1_output_0_splitncnn_0 /Add_1_output_0_splitncnn_1 /Add_1_output_0_splitncnn_2 /Add_1_output_0_splitncnn_3 /Add_1_output_0_splitncnn_4 /Add_1_output_0_splitncnn_5
Convolution      /Conv_11                 1 1 /Add_1_output_0_splitncnn_5 /LeakyRelu_8_output_0 0=32 1=3 4=1 5=1 6=9216 9=2 -23310=1,2.000000e-01
Split            splitncnn_9              1 4 /LeakyRelu_8_output_0 /LeakyRelu_8_output_0_splitncnn_0 /LeakyRelu_8_output_0_splitncnn_1 /LeakyRelu_8_output_0_splitncnn_2 /LeakyRelu_8_output_0_splitncnn_3
Concat           /Concat_8                2 1 /Add_1_output_0_splitncnn_4 /LeakyRelu_8_output_0_splitncnn_3 /Concat_8_output_0
Convolution      /Conv_12                 1 1 /Concat_8_output_0 /LeakyRelu_9_output_0 0=32 1=3 4=1 5=1 6=18432 9=2 -23310=1,2.000000e-01
Split            splitncnn_10             1 3 /LeakyRelu_9_output_0 /LeakyRelu_9_output_0_splitncnn_0 /LeakyRelu_9_output_0_splitncnn_1 /LeakyRelu_9_output_0_splitncnn_2
Concat           /Concat_9                3 1 /Add_1_output_0_splitncnn_3 /LeakyRelu_8_output_0_splitncnn_2 /LeakyRelu_9_output_0_splitncnn_2 /Concat_9_output_0
Convolution      /Conv_13                 1 1 /Concat_9_output_0 /LeakyRelu_10_output_0 0=32 1=3 4=1 5=1 6=27648 9=2 -23310=1,2.000000e-01
Split            splitncnn_11             1 2 /LeakyRelu_10_output_0 /LeakyRelu_10_output_0_splitncnn_0 /LeakyRelu_10_output_0_splitncnn_1
Concat           /Concat_10               4 1 /Add_1_output_0_splitncnn_2 /LeakyRelu_8_output_0_splitncnn_1 /LeakyRelu_9_output_0_splitncnn_1 /LeakyRelu_10_output_0_splitncnn_1 /Concat_10_output_0
Convolution      /Conv_14                 1 1 /Concat_10_output_0 /LeakyRelu_11_output_0 0=32 1=3 4=1 5=1 6=36864 9=2 -23310=1,2.000000e-01
Concat           /Concat_11               5 1 /Add_1_output_0_splitncnn_1 /LeakyRelu_8_output_0_splitncnn_0 /LeakyRelu_9_output_0_splitncnn_0 /LeakyRelu_10_output_0_splitncnn_0 /LeakyRelu_11_output_0 /Concat_11_output_0
Convolution      /Conv_15                 1 1 /Concat_11_output_0 /Conv_15_output_0 0=32 1=3 4=1 5=1 6=46080
Eltwise          /Add_2                   2 1 /Conv_15_output_0 /Add_1_output_0_splitncnn_0 /Add_2_output_0 0=1 -23301=2,2.000000e-01,1.000000e+00
Eltwise          /Add_3                   2 1 /Add_2_output_0 /Conv_output_0_splitncnn_1 /Add_3_output_0 0=1 -23301=2,2.000000e-01,1.000000e+00
Split            splitncnn_12             1 7 /Add_3_output_0 /Add_3_output_0_splitncnn_0 /Add_3_output_0_splitncnn_1 /Add_3_output_0_splitncnn_2 /Add_3_output_0_splitncnn_3 /Add_3_output_0_splitncnn_4 /Add_3_output_0_splitncnn_5 /Add_3_output_0_splitncnn_6
Convolution      /Conv_16                 1 1 /Add_3_output_0_splitncnn_6 /LeakyRelu_12_output_0 0=32 1=3 4=1 5=1 6=9216 9=2 -23310=1,2.000000e-01
Split            splitncnn_13             1 4 /LeakyRelu_12_output_0 /LeakyRelu_12_output_0_splitncnn_0 /LeakyRelu_12_output_0_splitncnn_1 /LeakyRelu_12_output_0_splitncnn_2 /LeakyRelu_12_output_0_splitncnn_3
Concat           /Concat_12               2 1 /Add_3_output_0_splitncnn_5 /LeakyRelu_12_output_0_splitncnn_3 /Concat_12_output_0
Convolution      /Conv_17                 1 1 /Concat_12_output_0 /LeakyRelu_13_output_0 0=32 1=3 4=1 5=1 6=18432 9=2 -23310=1,2.000000e-01
Split            splitncnn_14             1 3 /LeakyRelu_13_output_0 /LeakyRelu_13_output_0_splitncnn_0 /LeakyRelu_13_output_0_splitncnn_1 /LeakyRelu_13_output_0_splitncnn_2
Concat           /Concat_13               3 1 /Add_3_output_0_splitncnn_4 /LeakyRelu_12_output_0_splitncnn_2 /LeakyRelu_13_output_0_splitncnn_2 /Concat_13_output_0
Convolution      /Conv_18                 1 1 /Concat_13_output_0 /LeakyRelu_14_output_0 0=32 1=3 4=1 5=1 6=27648 9=2 -23310=1,2.000000e-01
Split            splitncnn_15             1 2 /LeakyRelu_14_output_0 /LeakyRelu_14_output_0_splitncnn_0 /LeakyRelu_14_output_0_splitncnn_1
Concat           /Concat_14               4 1 /Add_3_output_0_splitncnn_3 /LeakyRelu_12_output_0_splitncnn_1 /LeakyRelu_13_output_0_splitncnn_1 /LeakyRelu_14_output_0_splitncnn_1 /Concat_14_output_0
Convolution      /Conv_19                 1 1 /Concat_14_output_0 /LeakyRelu_15_output_0 0=32 1=3 4=1 5=1 6=36864 9=2 -23310=1,2.000000e-01
Concat           /Concat_15               5 1 /Add_3_output_0_splitncnn_2 /LeakyRelu_12_output_0_splitncnn_0 /LeakyRelu_13_output_0_splitncnn_0 /LeakyRelu_14_output_0_splitncnn_0 /LeakyRelu_15_output_0 /Concat_15_output_0
Convolution      /Conv_20                 1 1 /Concat_15_output_0 /Conv_20_output_0 0=32 1=3 4=1 5=1 6=46080
Eltwise          /Add_4                   2 1 /Conv_20_output_0 /Add_3_output_0_splitncnn_1 /Add_4_output_0 0=1 -23301=2,2.000000e-01,1.000000e+00
Split            splitncnn_16             1 6 /Add_4_output_0 /Add_4_output_0_splitncnn_0 /Add_4_output_0_splitncnn_1 /Add_4_output_0_splitncnn_2 /Add_4_output_0_splitncnn_3 /Add_4_output_0_splitncnn_4 /Add_4_output_0_splitncnn_5
Convolution      /Conv_21                 1 1 /Add_4_output_0_splitncnn_5 /LeakyRelu_16_output_0 0=32 1=3 4=1 5=1 6=9216 9=2 -23310=1,2.000000e-01
Split            splitncnn_17             1 4 /LeakyRelu_16_output_0 /LeakyRelu_16_output_0_splitncnn_0 /LeakyRelu_16_output_0_splitncnn_1 /LeakyRelu_16_output_0_splitncnn_2 /LeakyRelu_16_output_0_splitncnn_3
Concat           /Concat_16               2 1 /Add_4_output_0_splitncnn_4 /LeakyRelu_16_output_0_splitncnn_3 /Concat_16_output_0
Convolution      /Conv_22                 1 1 /Concat_16_output_0 /LeakyRelu_17_output_0 0=32 1=3 4=1 5=1 6=18432 9=2 -23310=1,2.000000e-01
Split            splitncnn_18             1 3 /LeakyRelu_17_output_0 /LeakyRelu_17_output_0_splitncnn_0 /LeakyRelu_17_output_0_splitncnn_1 /LeakyRelu_17_output_0_splitncnn_2
Concat           /Concat_17               3 1 /Add_4_output_0_splitncnn_3 /LeakyRelu_16_output_0_splitncnn_2 /LeakyRelu_17_output_0_splitncnn_2 /Concat_17_output_0
Convolution      /Conv_23                 1 1 /Concat_17_output_0 /LeakyRelu_18_output_0 0=32 1=3 4=1 5=1 6=27648 9=2 -23310=1,2.000000e-01
Split            splitncnn_19             1 2 /LeakyRelu_18_output_0 /LeakyRelu_18_output_0_splitncnn_0 /LeakyRelu_18_output_0_splitncnn_1
Concat           /Concat_18               4 1 /Add_4_output_0_splitncnn_2 /LeakyRelu_16_output_0_splitncnn_1 /LeakyRelu_17_output_0_splitncnn_1 /LeakyRelu_18_output_0_splitncnn_1 /Concat_18_output_0
Convolution      /Conv_24                 1 1 /Concat_18_output_0 /LeakyRelu_19_output_0 0=32 1=3 4=1 5=1 6=36864 9=2 -23310=1,2.000000e-01
Concat           /Concat_19               5 1 /Add_4_output_0_splitncnn_1 /LeakyRelu_16_output_0_splitncnn_0 /LeakyRelu_17_output_0_splitncnn_0 /LeakyRelu_18_output_0_splitncnn_0 /LeakyRelu_19_output_0 /Concat_19_output_0
Convolution      /Conv_25                 1 1 /Concat_19_output_0 /Conv_25_output_0 0=32 1=3 4=1 5=1 6=46080
Eltwise          /Add_5                   2 1 /Conv_25_output_0 /Add_4_output_0_splitncnn_0 /Add_5_output_0 0=1 -23301=2,2.000000e-01,1.000000e+00
Split            splitncnn_20             1 6 /Add_5_output_0 /Add_5_output_0_splitncnn_0 /Add_5_output_0_splitncnn_1 /Add_5_output_0_splitncnn_2 /Add_5_output_0_splitncnn_3 /Add_5_output_0_splitncnn_4 /Add_5_output_0_splitncnn_5
Convolution      /Conv_26                 1 1 /Add_5_output_0_splitncnn_5 /LeakyRelu_20_output_0 0=32 1=3 4=1 5=1 6=9216 9=2 -23310=1,2.000000e-01
Split            splitncnn_21             1 4 /LeakyRelu_20_output_0 /LeakyRelu_20_output_0_splitncnn_0 /LeakyRelu_20_output_0_splitncnn_1 /LeakyRelu_20_output_0_splitncnn_2 /LeakyRelu_20_output_0_splitncnn_3
Concat           /Concat_20               2 1 /Add_5_output_0_splitncnn_4 /LeakyRelu_20_output_0_splitncnn_3 /Concat_20_output_0
Convolution      /Conv_27                 1 1 /Concat_20_output_0 /LeakyRelu_21_output_0 0=32 1=3 4=1 5=1 6=18432 9=2 -23310=1,2.000000e-01
Split            splitncnn_22             1 3 /LeakyRelu_21_output_0 /LeakyRelu_21_output_0_splitncnn_0 /LeakyRelu_21_output_0_splitncnn_1 /LeakyRelu_21_output_0_splitncnn_2
Concat           /Concat_21               3 1 /Add_5_output_0_splitncnn_3 /LeakyRelu_20_output_0_splitncnn_2 /LeakyRelu_21_output_0_splitncnn_2 /Concat_21_output_0
Convolution      /Conv_28                 1 1 /Concat_21_output_0 /LeakyRelu_22_output_0 0=32 1=3 4=1 5=1 6=27648 9=2 -23310=1,2.000000e-01
Split            splitncnn_23             1 2 /LeakyRelu_22_output_0 /LeakyRelu_22_output_0_splitncnn_0 /LeakyRelu_22_output_0_splitncnn_1
Concat           /Concat_22               4 1 /Add_5_output_0_splitncnn_2 /LeakyRelu_20_output_0_splitncnn_1 /LeakyRelu_21_output_0_splitncnn_1 /LeakyRelu_22_output_0_splitncnn_1 /Concat_22_output_0
Convolution      /Conv_29                 1 1 /Concat_22_output_0 /LeakyRelu_23_output_0 0=32 1=3 4=1 5=1 6=36864 9=2 -23310=1,2.000000e-01
Concat           /Concat_23               5 1 /Add_5_output_0_splitncnn_1 /LeakyRelu_20_output_0_splitncnn_0 /LeakyRelu_21_output_0_splitncnn_0 /LeakyRelu_22_output_0_splitncnn_0 /LeakyRelu_23_output_0 /Concat_23_output_0
Convolution      /Conv_30                 1 1 /Concat_23_output_0 /Conv_30_output_0 0=32 1=3 4=1 5=1 6=46080
Eltwise          /Add_6                   2 1 /Conv_30_output_0 /Add_5_output_0_splitncnn_0 /Add_6_output_0 0=1 -23301=2,2.000000e-01,1.000000e+00
Eltwise          /Add_7                   2 1 /Add_6_output_0 /Add_3_output_0_splitncnn_0 /Add_7_output_0 0=1 -23301=2,2.000000e-01,1.000000e+00
Split            splitncnn_24             1 7 /Add_7_output_0 /Add_7_output_0_splitncnn_0 /Add_7_output_0_splitncnn_1 /Add_7_output_0_splitncnn_2 /Add_7_output_0_splitncnn_3 /Add_7_output_0_splitncnn_4 /Add_7_output_0_splitncnn_5 /Add_7_output_0_splitncnn_6
Convolution      /Conv_31                 1 1 /Add_7_output_0_splitncnn_6 /LeakyRelu_24_output_0 0=32 1=3 4=1 5=1 6=9216 9=2 -23310=1,2.000000e-01
Split            splitncnn_25             1 4 /LeakyRelu_24_output_0 /LeakyRelu_24_output_0_splitncnn_0 /LeakyRelu_24_output_0_splitncnn_1 /LeakyRelu_24_output_0_splitncnn_2 /LeakyRelu_24_output_0_splitncnn_3
Concat           /Concat_24               2 1 /Add_7_output_0_splitncnn_5 /LeakyRelu_24_output_0_splitncnn_3 /Concat_24_output_0
Convolution      /Conv_32                 1 1 /Concat_24_output_0 /LeakyRelu_25_output_0 0=32 1=3 4=1 5=1 6=18432 9=2 -23310=1,2.000000e-01
Split            splitncnn_26             1 3 /LeakyRelu_25_output_0 /LeakyRelu_25_output_0_splitncnn_0 /LeakyRelu_25_output_0_splitncnn_1 /LeakyRelu_25_output_0_splitncnn_2
Concat           /Concat_25               3 1 /Add_7_output_0_splitncnn_4 /LeakyRelu_24_output_0_splitncnn_2 /LeakyRelu_25_output_0_splitncnn_2 /Concat_25_output_0
Convolution      /Conv_33                 1 1 /Concat_25_output_0 /LeakyRelu_26_output_0 0=32 1=3 4=1 5=1 6=27648 9=2 -23310=1,2.000000e-01
Split            splitncnn_27             1 2 /LeakyRelu_26_output_0 /LeakyRelu_26_output_0_splitncnn_0 /LeakyRelu_26_output_0_splitncnn_1
Concat           /Concat_26               4 1 /Add_7_output_0_splitncnn_3 /LeakyRelu_24_output_0_splitncnn_1 /LeakyRelu_25_output_0_splitncnn_1 /LeakyRelu_26_output_0_splitncnn_1 /Concat_26_output_0
Convolution      /Conv_34                 1 1 /Concat_26_output_0 /LeakyRelu_27_output_0 0=32 1=3 4=1 5=1 6=36864 9=2 -23310=1,2.000000e-01
Concat           /Concat_27               5 1 /Add_7_output_0_splitncnn_2 /LeakyRelu_24_output_0_splitncnn_0 /LeakyRelu_25_output_0_splitncnn_0 /LeakyRelu_26_output_0_splitncnn_0 /LeakyRelu_27_output_0 /Concat_27_output_0
Convolution      /Conv_35                 1 1 /Concat_27_output_0 /Conv_35_output_0 0=32 1=3 4=1 5=1 6=46080
Eltwise          /Add_8                   2 1 /Conv_35_output_0 /Add_7_output_0_splitncnn_1 /Add_8_output_0 0=1 -23301=2,2.000000e-01,1.000000e+00
Split            splitncnn_28             1 6 /Add_8_output_0 /Add_8_output_0_splitncnn_0 /Add_8_output_0_splitncnn_1 /Add_8_output_0_splitncnn_2 /Add_8_output_0_splitncnn_3 /Add_8_output_0_splitncnn_4 /Add_8_output_0_splitncnn_5
Convolution      /Conv_36                 1 1 /Add_8_output_0_splitncnn_5 /LeakyRelu_28_output_0 0=32 1=3 4=1 5=1 6=9216 9=2 -23310=1,2.000000e-01
Split            splitncnn_29             1 4 /LeakyRelu_28_output_0 /LeakyRelu_28_output_0_splitncnn_0 /LeakyRelu_28_output_0_splitncnn_1 /LeakyRelu_28_output_0_splitncnn_2 /LeakyRelu_28_output_0_splitncnn_3
Concat           /Concat_28               2 1 /Add_8_output_0_splitncnn_4 /LeakyRelu_28_output_0_splitncnn_3 /Concat_28_output_0
Convolution      /Conv_37                 1 1 /Concat_28_output_0 /LeakyRelu_29_output_0 0=32 1=3 4=1 5=1 6=18432 9=2 -23310=1,2.000000e-01
Split            splitncnn_30             1 3 /LeakyRelu_29_output_0 /LeakyRelu_29_output_0_splitncnn_0 /LeakyRelu_29_output_0_splitncnn_1 /LeakyRelu_29_output_0_splitncnn_2
Concat           /Concat_29               3 1 /Add_8_output_0_splitncnn_3 /LeakyRelu_28_output_0_splitncnn_2 /LeakyRelu_29_output_0_splitncnn_2 /Concat_29_output_0
Convolution      /Conv_38                 1 1 /Concat_29_output_0 /LeakyRelu_30_output_0 0=32 1=3 4=1 5=1 6=27648 9=2 -23310=1,2.000000e-01
Split            splitncnn_31             1 2 /LeakyRelu_30_output_0 /LeakyRelu_30_output_0_splitncnn_0 /LeakyRelu_30_output_0_splitncnn_1
Concat           /Concat_30               4 1 /Add_8_output_0_splitncnn_2 /LeakyRelu_28_output_0_splitncnn_1 /LeakyRelu_29_output_0_splitncnn_1 /LeakyRelu_30_output_0_splitncnn_1 /Concat_30_output_0
Convolution      /Conv_39                 1 1 /Concat_30_output_0 /LeakyRelu_31_output_0 0=32 1=3 4=1 5=1 6=36864 9=2 -23310=1,2.000000e-01
Concat           /Concat_31               5 1 /Add_8_output_0_splitncnn_1 /LeakyRelu_28_output_0_splitncnn_0 /LeakyRelu_29_output_0_splitncnn_0 /LeakyRelu_30_output_0_splitncnn_0 /LeakyRelu_31_output_0 /Concat_31_output_0
Convolution      /Conv_40                 1 1 /Concat_31_output_0 /Conv_40_output_0 0=32 1=3 4=1 5=1 6=46080
Eltwise          /Add_9                   2 1 /Conv_40_output_0 /Add_8_output_0_splitncnn_0 /Add_9_output_0 0=1 -23301=2,2.000000e-01,1.000000e+00
Split            splitncnn_32             1 6 /Add_9_output_0 /Add_9_output_0_splitncnn_0 /Add_9_output_0_splitncnn_1 /Add_9_output_0_splitncnn_2 /Add_9_output_0_splitncnn_3 /Add_9_output_0_splitncnn_4 /Add_9_output_0_splitncnn_5
Convolution      /Conv_41                 1 1 /Add_9_output_0_splitncnn_5 /LeakyRelu_32_output_0 0=32 1=3 4=1 5=1 6=9216 9=2 -23310=1,2.000000e-01
Split            splitncnn_33             1 4 /LeakyRelu_32_output_0 /LeakyRelu_32_output_0_splitncnn_0 /LeakyRelu_32_output_0_splitncnn_1 /LeakyRelu_32_output_0_splitncnn_2 /LeakyRelu_32_output_0_splitncnn_3
Concat           /Concat_32               2 1 /Add_9_output_0_splitncnn_4 /LeakyRelu_32_output_0_splitncnn_3 /Concat_32_output_0
Convolution      /Conv_42                 1 1 /Concat_32_output_0 /LeakyRelu_33_output_0 0=32 1=3 4=1 5=1 6=18432 9=2 -23310=1,2.000000e-01
Split            splitncnn_34             1 3 /LeakyRelu_33_output_0 /LeakyRelu_33_output_0_splitncnn_0 /LeakyRelu_33_output_0_splitncnn_1 /LeakyRelu_33_output_0_splitncnn_2
Concat           /Concat_33               3 1 /Add_9_output_0_splitncnn_3 /LeakyRelu_32_output_0_splitncnn_2 /LeakyRelu_33_output_0_splitncnn_2 /Concat_33_output_0
Convolution      /Conv_43                 1 1 /Concat_33_output_0 /LeakyRelu_34_output_0 0=32 1=3 4=1 5=1 6=27648 9=2 -23310=1,2.000000e-01
Split            splitncnn_35             1 2 /LeakyRelu_34_output_0 /LeakyRelu_34_output_0_splitncnn_0 /LeakyRelu_34_output_0_splitncnn_1
Concat           /Concat_34               4 1 /Add_9_output_0_splitncnn_2 /LeakyRelu_32_output_0_splitncnn_1 /LeakyRelu_33_output_0_splitncnn_1 /LeakyRelu_34_output_0_splitncnn_1 /Concat_34_output_0
Convolution      /Conv_44                 1 1 /Concat_34_output_0 /LeakyRelu_35_output_0 0=32 1=3 4=1 5=1 6=36864 9=2 -23310=1,2.000000e-01
Concat           /Concat_35               5 1 /Add_9_output_0_splitncnn_1 /LeakyRelu_32_output_0_splitncnn_0 /LeakyRelu_33_output_0_splitncnn_0 /LeakyRelu_34_output_0_splitncnn_0 /LeakyRelu_35_output_0 /Concat_35_output_0
Convolution      /Conv_45                 1 1 /Concat_35_output_0 /Conv_45_output_0 0=32 1=3 4=1 5=1 6=46080
Eltwise          /Add_10                  2 1 /Conv_45_output_0 /Add_9_output_0_splitncnn_0 /Add_10_output_0 0=1 -23301=2,2.000000e-01,1.000000e+00
Eltwise          /Add_11                  2 1 /Add_10_output_0 /Add_7_output_0_splitncnn_0 /Add_11_output_0 0=1 -23301=2,2.000000e-01,1.000000e+00
Split            splitncnn_36             1 7 /Add_11_output_0 /Add_11_output_0_splitncnn_0 /Add_11_output_0_splitncnn_1 /Add_11_output_0_splitncnn_2 /Add_11_output_0_splitncnn_3 /Add_11_output_0_splitncnn_4 /Add_11_output_0_splitncnn_5 /Add_11_output_0_splitncnn_6
Convolution      /Conv_46                 1 1 /Add_11_output_0_splitncnn_6 /LeakyRelu_36_output_0 0=32 1=3 4=1 5=1 6=9216 9=2 -23310=1,2.000000e-01
Split            splitncnn_37             1 4 /LeakyRelu_36_output_0 /LeakyRelu_36_output_0_splitncnn_0 /LeakyRelu_36_output_0_splitncnn_1 /LeakyRelu_36_output_0_splitncnn_2 /LeakyRelu_36_output_0_splitncnn_3
Concat           /Concat_36               2 1 /Add_11_output_0_splitncnn_5 /LeakyRelu_36_output_0_splitncnn_3 /Concat_36_output_0
Convolution      /Conv_47                 1 1 /Concat_36_output_0 /LeakyRelu_37_output_0 0=32 1=3 4=1 5=1 6=18432 9=2 -23310=1,2.000000e-01
Split            splitncnn_38             1 3 /LeakyRelu_37_output_0 /LeakyRelu_37_output_0_splitncnn_0 /LeakyRelu_37_output_0_splitncnn_1 /LeakyRelu_37_output_0_splitncnn_2
Concat           /Concat_37               3 1 /Add_11_output_0_splitncnn_4 /LeakyRelu_36_output_0_splitncnn_2 /LeakyRelu_37_output_0_splitncnn_2 /Concat_37_output_0
Convolution      /Conv_48                 1 1 /Concat_37_output_0 /LeakyRelu_38_output_0 0=32 1=3 4=1 5=1 6=27648 9=2 -23310=1,2.000000e-01
Split            splitncnn_39             1 2 /LeakyRelu_38_output_0 /LeakyRelu_38_output_0_splitncnn_0 /LeakyRelu_38_output_0_splitncnn_1
Concat           /Concat_38               4 1 /Add_11_output_0_splitncnn_3 /LeakyRelu_36_output_0_splitncnn_1 /LeakyRelu_37_output_0_splitncnn_1 /LeakyRelu_38_output_0_splitncnn_1 /Concat_38_output_0
Convolution      /Conv_49                 1 1 /Concat_38_output_0 /LeakyRelu_39_output_0 0=32 1=3 4=1 5=1 6=36864 9=2 -23310=1,2.000000e-01
Concat           /Concat_39               5 1 /Add_11_output_0_splitncnn_2 /LeakyRelu_36_output_0_splitncnn_0 /LeakyRelu_37_output_0_splitncnn_0 /LeakyRelu_38_output_0_splitncnn_0 /LeakyRelu_39_output_0 /Concat_39_output_0
Convolution      /Conv_50                 1 1 /Concat_39_output_0 /Conv_50_output_0 0=32 1=3 4=1 5=1 6=46080
Eltwise          /Add_12                  2 1 /Conv_50_output_0 /Add_11_output_0_splitncnn_1 /Add_12_output_0 0=1 -23301=2,2.000000e-01,1.000000e+00
Split            splitncnn_40             1 6 /Add_12_output_0 /Add_12_output_0_splitncnn_0 /Add_12_output_0_splitncnn_1 /Add_12_output_0_splitncnn_2 /Add_12_output_0_splitncnn_3 /Add_12_output_0_splitncnn_4 /Add_12_output_0_splitncnn_5
Convolution      /Conv_51                 1 1 /Add_12_output_0_splitncnn_5 /LeakyRelu_40_output_0 0=32 1=3 4=1 5=1 6=9216 9=2 -23310=1,2.000000e-01
Split            splitncnn_41             1 4 /LeakyRelu_40_output_0 /LeakyRelu_40_output_0_splitncnn_0 /LeakyRelu_40_output_0_splitncnn_1 /LeakyRelu_40_output_0_splitncnn_2 /LeakyRelu_40_output_0_splitncnn_3
Concat           /Concat_40               2 1 /Add_12_output_0_splitncnn_4 /LeakyRelu_40_output_0_splitncnn_3 /Concat_40_output_0
Convolution      /Conv_52                 1 1 /Concat_40_output_0 /LeakyRelu_41_output_0 0=32 1=3 4=1 5=1 6=18432 9=2 -23310=1,2.000000e-01
Split            splitncnn_42             1 3 /LeakyRelu_41_output_0 /LeakyRelu_41_output_0_splitncnn_0 /LeakyRelu_41_output_0_splitncnn_1 /LeakyRelu_41_output_0_splitncnn_2
Concat           /Concat_41               3 1 /Add_12_output_0_splitncnn_3 /LeakyRelu_40_output_0_splitncnn_2 /LeakyRelu_41_output_0_splitncnn_2 /Concat_41_output_0
Convolution      /Conv_53                 1 1 /Concat_41_output_0 /LeakyRelu_42_output_0 0=32 1=3 4=1 5=1 6=27648 9=2 -23310=1,2.000000e-01
Split            splitncnn_43             1 2 /LeakyRelu_42_output_0 /LeakyRelu_42_output_0_splitncnn_0 /LeakyRelu_42_output_0_splitncnn_1
Concat           /Concat_42               4 1 /Add_12_output_0_splitncnn_2 /LeakyRelu_40_output_0_splitncnn_1 /LeakyRelu_41_output_0_splitncnn_1 /LeakyRelu_42_output_0_splitncnn_1 /Concat_42_output_0
Convolution      /Conv_54                 1 1 /Concat_42_output_0 /LeakyRelu_43_output_0 0=32 1=3 4=1 5=1 6=36864 9=2 -23310=1,2.000000e-01
Concat           /Concat_43               5 1 /Add_12_output_0_splitncnn_1 /LeakyRelu_40_output_0_splitncnn_0 /LeakyRelu_41_output_0_splitncnn_0 /LeakyRelu_42_output_0_splitncnn_0 /LeakyRelu_43_output_0 /Concat_43_output_0
Convolution      /Conv_55                 1 1 /Concat_43_output_0 /Conv_55_output_0 0=32 1=3 4=1 5=1 6=46080
Eltwise          /Add_13                  2 1 /Conv_55_output_0 /Add_12_output_0_splitncnn_0 /Add_13_output_0 0=1 -23301=2,2.000000e-01,1.000000e+00
Split            splitncnn_44             1 6 /Add_13_output_0 /Add_13_output_0_splitncnn_0 /Add_13_output_0_splitncnn_1 /Add_13_output_0_splitncnn_2 /Add_13_output_0_splitncnn_3 /Add_13_output_0_splitncnn_4 /Add_13_output_0_splitncnn_5
Convolution      /Conv_56                 1 1 /Add_13_output_0_splitncnn_5 /LeakyRelu_44_output_0 0=32 1=3 4=1 5=1 6=9216 9=2 -23310=1,2.000000e-01
Split            splitncnn_45             1 4 /LeakyRelu_44_output_0 /LeakyRelu_44_output_0_splitncnn_0 /LeakyRelu_44_output_0_splitncnn_1 /LeakyRelu_44_output_0_splitncnn_2 /LeakyRelu_44_output_0_splitncnn_3
Concat           /Concat_44               2 1 /Add_13_output_0_splitncnn_4 /LeakyRelu_44_output_0_splitncnn_3 /Concat_44_output_0
Convolution      /Conv_57                 1 1 /Concat_44_output_0 /LeakyRelu_45_output_0 0=32 1=3 4=1 5=1 6=18432 9=2 -23310=1,2.000000e-01
Split            splitncnn_46             1 3 /LeakyRelu_45_output_0 /LeakyRelu_45_output_0_splitncnn_0 /LeakyRelu_45_output_0_splitncnn_1 /LeakyRelu_45_output_0_splitncnn_2
Concat           /Concat_45               3 1 /Add_13_output_0_splitncnn_3 /LeakyRelu_44_output_0_splitncnn_2 /LeakyRelu_45_output_0_splitncnn_2 /Concat_45_output_0
Convolution      /Conv_58                 1 1 /Concat_45_output_0 /LeakyRelu_46_output_0 0=32 1=3 4=1 5=1 6=27648 9=2 -23310=1,2.000000e-01
Split            splitncnn_47             1 2 /LeakyRelu_46_output_0 /LeakyRelu_46_output_0_splitncnn_0 /LeakyRelu_46_output_0_splitncnn_1
Concat           /Concat_46               4 1 /Add_13_output_0_splitncnn_2 /LeakyRelu_44_output_0_splitncnn_1 /LeakyRelu_45_output_0_splitncnn_1 /LeakyRelu_46_output_0_splitncnn_1 /Concat_46_output_0
Convolution      /Conv_59                 1 1 /Concat_46_output_0 /LeakyRelu_47_output_0 0=32 1=3 4=1 5=1 6=36864 9=2 -23310=1,2.000000e-01
Concat           /Concat_47               5 1 /Add_13_output_0_splitncnn_1 /LeakyRelu_44_output_0_splitncnn_0 /LeakyRelu_45_output_0_splitncnn_0 /LeakyRelu_46_output_0_splitncnn_0 /LeakyRelu_47_output_0 /Concat_47_output_0
Convolution      /Conv_60                 1 1 /Concat_47_output_0 /Conv_60_output_0 0=32 1=3 4=1 5=1 6=46080
Eltwise          /Add_14                  2 1 /Conv_60_output_0 /Add_13_output_0_splitncnn_0 /Add_14_output_0 0=1 -23301=2,2.000000e-01,1.000000e+00
Eltwise          /Add_15                  2 1 /Add_14_output_0 /Add_11_output_0_splitncnn_0 /Add_15_output_0 0=1 -23301=2,2.000000e-01,1.000000e+00
Split            splitncnn_48             1 7 /Add_15_output_0 /Add_15_output_0_splitncnn_0 /Add_15_output_0_splitncnn_1 /Add_15_output_0_splitncnn_2 /Add_15_output_0_splitncnn_3 /Add_15_output_0_splitncnn_4 /Add_15_output_0_splitncnn_5 /Add_15_output_0_splitncnn_6
Convolution      /Conv_61                 1 1 /Add_15_output_0_splitncnn_6 /LeakyRelu_48_output_0 0=32 1=3 4=1 5=1 6=9216 9=2 -23310=1,2.000000e-01
Split            splitncnn_49             1 4 /LeakyRelu_48_output_0 /LeakyRelu_48_output_0_splitncnn_0 /LeakyRelu_48_output_0_splitncnn_1 /LeakyRelu_48_output_0_splitncnn_2 /LeakyRelu_48_output_0_splitncnn_3
Concat           /Concat_48               2 1 /Add_15_output_0_splitncnn_5 /LeakyRelu_48_output_0_splitncnn_3 /Concat_48_output_0
Convolution      /Conv_62                 1 1 /Concat_48_output_0 /LeakyRelu_49_output_0 0=32 1=3 4=1 5=1 6=18432 9=2 -23310=1,2.000000e-01
Split            splitncnn_50             1 3 /LeakyRelu_49_output_0 /LeakyRelu_49_output_0_splitncnn_0 /LeakyRelu_49_output_0_splitncnn_1 /LeakyRelu_49_output_0_splitncnn_2
Concat           /Concat_49               3 1 /Add_15_output_0_splitncnn_4 /LeakyRelu_48_output_0_splitncnn_2 /LeakyRelu_49_output_0_splitncnn_2 /Concat_49_output_0
Convolution      /Conv_63                 1 1 /Concat_49_output_0 /LeakyRelu_50_output_0 0=32 1=3 4=1 5=1 6=27648 9=2 -23310=1,2.000000e-01
Split            splitncnn_51             1 2 /LeakyRelu_50_output_0 /LeakyRelu_50_output_0_splitncnn_0 /LeakyRelu_50_output_0_splitncnn_1
Concat           /Concat_50               4 1 /Add_15_output_0_splitncnn_3 /LeakyRelu_48_output_0_splitncnn_1 /LeakyRelu_49_output_0_splitncnn_1 /LeakyRelu_50_output_0_splitncnn_1 /Concat_50_output_0
Convolution      /Conv_64                 1 1 /Concat_50_output_0 /LeakyRelu_51_output_0 0=32 1=3 4=1 5=1 6=36864 9=2 -23310=1,2.000000e-01
Concat           /Concat_51               5 1 /Add_15_output_0_splitncnn_2 /LeakyRelu_48_output_0_splitncnn_0 /LeakyRelu_49_output_0_splitncnn_0 /LeakyRelu_50_output_0_splitncnn_0 /LeakyRelu_51_output_0 /Concat_51_output_0
Convolution      /Conv_65                 1 1 /Concat_51_output_0 /Conv_65_output_0 0=32 1=3 4=1 5=1 6=46080
Eltwise          /Add_16                  2 1 /Conv_65_output_0 /Add_15_output_0_splitncnn_1 /Add_16_output_0 0=1 -23301=2,2.000000e-01,1.000000e+00
Split            splitncnn_52             1 6 /Add_16_output_0 /Add_16_output_0_splitncnn_0 /Add_16_output_0_splitncnn_1 /Add_16_output_0_splitncnn_2 /Add_16_output_0_splitncnn_3 /Add_16_output_0_splitncnn_4 /Add_16_output_0_splitncnn_5
Convolution      /Conv_66                 1 1 /Add_16_output_0_splitncnn_5 /LeakyRelu_52_output_0 0=32 1=3 4=1 5=1 6=9216 9=2 -23310=1,2.000000e-01
Split            splitncnn_53             1 4 /LeakyRelu_52_output_0 /LeakyRelu_52_output_0_splitncnn_0 /LeakyRelu_52_output_0_splitncnn_1 /LeakyRelu_52_output_0_splitncnn_2 /LeakyRelu_52_output_0_splitncnn_3
Concat           /Concat_52               2 1 /Add_16_output_0_splitncnn_4 /LeakyRelu_52_output_0_splitncnn_3 /Concat_52_output_0
Convolution      /Conv_67                 1 1 /Concat_52_output_0 /LeakyRelu_53_output_0 0=32 1=3 4=1 5=1 6=18432 9=2 -23310=1,2.000000e-01
Split            splitncnn_54             1 3 /LeakyRelu_53_output_0 /LeakyRelu_53_output_0_splitncnn_0 /LeakyRelu_53_output_0_splitncnn_1 /LeakyRelu_53_output_0_splitncnn_2
Concat           /Concat_53               3 1 /Add_16_output_0_splitncnn_3 /LeakyRelu_52_output_0_splitncnn_2 /LeakyRelu_53_output_0_splitncnn_2 /Concat_53_output_0
Convolution      /Conv_68                 1 1 /Concat_53_output_0 /LeakyRelu_54_output_0 0=32 1=3 4=1 5=1 6=27648 9=2 -23310=1,2.000000e-01
Split            splitncnn_55             1 2 /LeakyRelu_54_output_0 /LeakyRelu_54_output_0_splitncnn_0 /LeakyRelu_54_output_0_splitncnn_1
Concat           /Concat_54               4 1 /Add_16_output_0_splitncnn_2 /LeakyRelu_52_output_0_splitncnn_1 /LeakyRelu_53_output_0_splitncnn_1 /LeakyRelu_54_output_0_splitncnn_1 /Concat_54_output_0
Convolution      /Conv_69                 1 1 /Concat_54_output_0 /LeakyRelu_55_output_0 0=32 1=3 4=1 5=1 6=36864 9=2 -23310=1,2.000000e-01
Concat           /Concat_55               5 1 /Add_16_output_0_splitncnn_1 /LeakyRelu_52_output_0_splitncnn_0 /LeakyRelu_53_output_0_splitncnn_0 /LeakyRelu_54_output_0_splitncnn_0 /LeakyRelu_55_output_0 /Concat_55_output_0
Convolution      /Conv_70                 1 1 /Concat_55_output_0 /Conv_70_output_0 0=32 1=3 4=1 5=1 6=46080
Eltwise          /Add_17                  2 1 /Conv_70_output_0 /Add_16_output_0_splitncnn_0 /Add_17_output_0 0=1 -23301=2,2.000000e-01,1.000000e+00
Split            splitncnn_56             1 6 /Add_17_output_0 /Add_17_output_0_splitncnn_0 /Add_17_output_0_splitncnn_1 /Add_17_output_0_splitncnn_2 /Add_17_output_0_splitncnn_3 /Add_17_output_0_splitncnn_4 /Add_17_output_0_splitncnn_5
Convolution      /Conv_71                 1 1 /Add_17_output_0_splitncnn_5 /LeakyRelu_56_output_0 0=32 1=3 4=1 5=1 6=9216 9=2 -23310=1,2.000000e-01
Split            splitncnn_57             1 4 /LeakyRelu_56_output_0 /LeakyRelu_56_output_0_splitncnn_0 /LeakyRelu_56_output_0_splitncnn_1 /LeakyRelu_56_output_0_splitncnn_2 /LeakyRelu_56_output_0_splitncnn_3
Concat           /Concat_56               2 1 /Add_17_output_0_splitncnn_4 /LeakyRelu_56_output_0_splitncnn_3 /Concat_56_output_0
Convolution      /Conv_72                 1 1 /Concat_56_output_0 /LeakyRelu_57_output_0 0=32 1=3 4=1 5=1 6=18432 9=2 -23310=1,2.000000e-01
Split            splitncnn_58             1 3 /LeakyRelu_57_output_0 /LeakyRelu_57_output_0_splitncnn_0 /LeakyRelu_57_output_0_splitncnn_1 /LeakyRelu_57_output_0_splitncnn_2
Concat           /Concat_57               3 1 /Add_17_output_0_splitncnn_3 /LeakyRelu_56_output_0_splitncnn_2 /LeakyRelu_57_output_0_splitncnn_2 /Concat_57_output_0
Convolution      /Conv_73                 1 1 /Concat_57_output_0 /LeakyRelu_58_output_0 0=32 1=3 4=1 5=1 6=27648 9=2 -23310=1,2.000000e-01
Split            splitncnn_59             1 2 /LeakyRelu_58_output_0 /LeakyRelu_58_output_0_splitncnn_0 /LeakyRelu_58_output_0_splitncnn_1
Concat           /Concat_58               4 1 /Add_17_output_0_splitncnn_2 /LeakyRelu_56_output_0_splitncnn_1 /LeakyRelu_57_output_0_splitncnn_1 /LeakyRelu_58_output_0_splitncnn_1 /Concat_58_output_0
Convolution      /Conv_74                 1 1 /Concat_58_output_0 /LeakyRelu_59_output_0 0=32 1=3 4=1 5=1 6=36864 9=2 -23310=1,2.000000e-01
Concat           /Concat_59               5 1 /Add_17_output_0_splitncnn_1 /LeakyRelu_56_output_0_splitncnn_0 /LeakyRelu_57_output_0_splitncnn_0 /LeakyRelu_58_output_0_splitncnn_0 /LeakyRelu_59_output_0 /Concat_59_output_0
Convolution      /Conv_75                 1 1 /Concat_59_output_0 /Conv_75_output_0 0=32 1=3 4=1 5=1 6=46080
Eltwise          /Add_18                  2 1 /Conv_75_output_0 /Add_17_output_0_splitncnn_0 /Add_18_output_0 0=1 -23301=2,2.000000e-01,1.000000e+00
Eltwise          /Add_19                  2 1 /Add_18_output_0 /Add_15_output_0_splitncnn_0 /Add_19_output_0 0=1 -23301=2,2.000000e-01,1.000000e+00
Split            splitncnn_60             1 7 /Add_19_output_0 /Add_19_output_0_splitncnn_0 /Add_19_output_0_splitncnn_1 /Add_19_output_0_splitncnn_2 /Add_19_output_0_splitncnn_3 /Add_19_output_0_splitncnn_4 /Add_19_output_0_splitncnn_5 /Add_19_output_0_splitncnn_6
Convolution      /Conv_76                 1 1 /Add_19_output_0_splitncnn_6 /LeakyRelu_60_output_0 0=32 1=3 4=1 5=1 6=9216 9=2 -23310=1,2.000000e-01
Split            splitncnn_61             1 4 /LeakyRelu_60_output_0 /LeakyRelu_60_output_0_splitncnn_0 /LeakyRelu_60_output_0_splitncnn_1 /LeakyRelu_60_output_0_splitncnn_2 /LeakyRelu_60_output_0_splitncnn_3
Concat           /Concat_60               2 1 /Add_19_output_0_splitncnn_5 /LeakyRelu_60_output_0_splitncnn_3 /Concat_60_output_0
Convolution      /Conv_77                 1 1 /Concat_60_output_0 /LeakyRelu_61_output_0 0=32 1=3 4=1 5=1 6=18432 9=2 -23310=1,2.000000e-01
Split            splitncnn_62             1 3 /LeakyRelu_61_output_0 /LeakyRelu_61_output_0_splitncnn_0 /LeakyRelu_61_output_0_splitncnn_1 /LeakyRelu_61_output_0_splitncnn_2
Concat           /Concat_61               3 1 /Add_19_output_0_splitncnn_4 /LeakyRelu_60_output_0_splitncnn_2 /LeakyRelu_61_output_0_splitncnn_2 /Concat_61_output_0
Convolution      /Conv_78                 1 1 /Concat_61_output_0 /LeakyRelu_62_output_0 0=32 1=3 4=1 5=1 6=27648 9=2 -23310=1,2.000000e-01
Split            splitncnn_63             1 2 /LeakyRelu_62_output_0 /LeakyRelu_62_output_0_splitncnn_0 /LeakyRelu_62_output_0_splitncnn_1
Concat           /Concat_62               4 1 /Add_19_output_0_splitncnn_3 /LeakyRelu_60_output_0_splitncnn_1 /LeakyRelu_61_output_0_splitncnn_1 /LeakyRelu_62_output_0_splitncnn_1 /Concat_62_output_0
Convolution      /Conv_79                 1 1 /Concat_62_output_0 /LeakyRelu_63_output_0 0=32 1=3 4=1 5=1 6=36864 9=2 -23310=1,2.000000e-01
Concat           /Concat_63               5 1 /Add_19_output_0_splitncnn_2 /LeakyRelu_60_output_0_splitncnn_0 /LeakyRelu_61_output_0_splitncnn_0 /LeakyRelu_62_output_0_splitncnn_0 /LeakyRelu_63_output_0 /Concat_63_output_0
Convolution      /Conv_80                 1 1 /Concat_63_output_0 /Conv_80_output_0 0=32 1=3 4=1 5=1 6=46080
Eltwise          /Add_20                  2 1 /Conv_80_output_0 /Add_19_output_0_splitncnn_1 /Add_20_output_0 0=1 -23301=2,2.000000e-01,1.000000e+00
Split            splitncnn_64             1 6 /Add_20_output_0 /Add_20_output_0_splitncnn_0 /Add_20_output_0_splitncnn_1 /Add_20_output_0_splitncnn_2 /Add_20_output_0_splitncnn_3 /Add_20_output_0_splitncnn_4 /Add_20_output_0_splitncnn_5
Convolution      /Conv_81                 1 1 /Add_20_output_0_splitncnn_5 /LeakyRelu_64_output_0 0=32 1=3 4=1 5=1 6=9216 9=2 -23310=1,2.000000e-01
Split            splitncnn_65             1 4 /LeakyRelu_64_output_0 /LeakyRelu_64_output_0_splitncnn_0 /LeakyRelu_64_output_0_splitncnn_1 /LeakyRelu_64_output_0_splitncnn_2 /LeakyRelu_64_output_0_splitncnn_3
Concat           /Concat_64               2 1 /Add_20_output_0_splitncnn_4 /LeakyRelu_64_output_0_splitncnn_3 /Concat_64_output_0
Convolution      /Conv_82                 1 1 /Concat_64_output_0 /LeakyRelu_65_output_0 0=32 1=3 4=1 5=1 6=18432 9=2 -23310=1,2.000000e-01
Split            splitncnn_66             1 3 /LeakyRelu_65_output_0 /LeakyRelu_65_output_0_splitncnn_0 /LeakyRelu_65_output_0_splitncnn_1 /LeakyRelu_65_output_0_splitncnn_2
Concat           /Concat_65               3 1 /Add_20_output_0_splitncnn_3 /LeakyRelu_64_output_0_splitncnn_2 /LeakyRelu_65_output_0_splitncnn_2 /Concat_65_output_0
Convolution      /Conv_83                 1 1 /Concat_65_output_0 /LeakyRelu_66_output_0 0=32 1=3 4=1 5=1 6=27648 9=2 -23310=1,2.000000e-01
Split            splitncnn_67             1 2 /LeakyRelu_66_output_0 /LeakyRelu_66_output_0_splitncnn_0 /LeakyRelu_66_output_0_splitncnn_1
Concat           /Concat_66               4 1 /Add_20_output_0_splitncnn_2 /LeakyRelu_64_output_0_splitncnn_1 /LeakyRelu_65_output_0_splitncnn_1 /LeakyRelu_66_output_0_splitncnn_1 /Concat_66_output_0
Convolution      /Conv_84                 1 1 /Concat_66_output_0 /LeakyRelu_67_output_0 0=32 1=3 4=1 5=1 6=36864 9=2 -23310=1,2.000000e-01
Concat           /Concat_67               5 1 /Add_20_output_0_splitncnn_1 /LeakyRelu_64_output_0_splitncnn_0 /LeakyRelu_65_output_0_splitncnn_0 /LeakyRelu_66_output_0_splitncnn_0 /LeakyRelu_67_output_0 /Concat_67_output_0
Convolution      /Conv_85                 1 1 /Concat_67_output_0 /Conv_85_output_0 0=32 1=3 4=1 5=1 6=46080
Eltwise          /Add_21                  2 1 /Conv_85_output_0 /Add_20_output_0_splitncnn_0 /Add_21_output_0 0=1 -23301=2,2.000000e-01,1.000000e+00
Split            splitncnn_68             1 6 /Add_21_output_0 /Add_21_output_0_splitncnn_0 /Add_21_output_0_splitncnn_1 /Add_21_output_0_splitncnn_2 /Add_21_output_0_splitncnn_3 /Add_21_output_0_splitncnn_4 /Add_21_output_0_splitncnn_5
Convolution      /Conv_86                 1 1 /Add_21_output_0_splitncnn_5 /LeakyRelu_68_output_0 0=32 1=3 4=1 5=1 6=9216 9=2 -23310=1,2.000000e-01
Split            splitncnn_69             1 4 /LeakyRelu_68_output_0 /LeakyRelu_68_output_0_splitncnn_0 /LeakyRelu_68_output_0_splitncnn_1 /LeakyRelu_68_output_0_splitncnn_2 /LeakyRelu_68_output_0_splitncnn_3
Concat           /Concat_68               2 1 /Add_21_output_0_splitncnn_4 /LeakyRelu_68_output_0_splitncnn_3 /Concat_68_output_0
Convolution      /Conv_87                 1 1 /Concat_68_output_0 /LeakyRelu_69_output_0 0=32 1=3 4=1 5=1 6=18432 9=2 -23310=1,2.000000e-01
Split            splitncnn_70             1 3 /LeakyRelu_69_output_0 /LeakyRelu_69_output_0_splitncnn_0 /LeakyRelu_69_output_0_splitncnn_1 /LeakyRelu_69_output_0_splitncnn_2
Concat           /Concat_69               3 1 /Add_21_output_0_splitncnn_3 /LeakyRelu_68_output_0_splitncnn_2 /LeakyRelu_69_output_0_splitncnn_2 /Concat_69_output_0
Convolution      /Conv_88                 1 1 /Concat_69_output_0 /LeakyRelu_70_output_0 0=32 1=3 4=1 5=1 6=27648 9=2 -23310=1,2.000000e-01
Split            splitncnn_71             1 2 /LeakyRelu_70_output_0 /LeakyRelu_70_output_0_splitncnn_0 /LeakyRelu_70_output_0_splitncnn_1
Concat           /Concat_70               4 1 /Add_21_output_0_splitncnn_2 /LeakyRelu_68_output_0_splitncnn_1 /LeakyRelu_69_output_0_splitncnn_1 /LeakyRelu_70_output_0_splitncnn_1 /Concat_70_output_0
Convolution      /Conv_89                 1 1 /Concat_70_output_0 /LeakyRelu_71_output_0 0=32 1=3 4=1 5=1 6=36864 9=2 -23310=1,2.000000e-01
Concat           /Concat_71               5 1 /Add_21_output_0_splitncnn_1 /LeakyRelu_68_output_0_splitncnn_0 /LeakyRelu_69_output_0_splitncnn_0 /LeakyRelu_70_output_0_splitncnn_0 /LeakyRelu_71_output_0 /Concat_71_output_0
Convolution      /Conv_90                 1 1 /Concat_71_output_0 /Conv_90_output_0 0=32 1=3 4=1 5=1 6=46080
Eltwise          /Add_22                  2 1 /Conv_90_output_0 /Add_21_output_0_splitncnn_0 /Add_22_output_0 0=1 -23301=2,2.000000e-01,1.000000e+00
Eltwise          /Add_23                  2 1 /Add_22_output_0 /Add_19_output_0_splitncnn_0 /Add_23_output_0 0=1 -23301=2,2.000000e-01,1.000000e+00
Split            splitncnn_72             1 7 /Add_23_output_0 /Add_23_output_0_splitncnn_0 /Add_23_output_0_splitncnn_1 /Add_23_output_0_splitncnn_2 /Add_23_output_0_splitncnn_3 /Add_23_output_0_splitncnn_4 /Add_23_output_0_splitncnn_5 /Add_23_output_0_splitncnn_6
Convolution      /Conv_91                 1 1 /Add_23_output_0_splitncnn_6 /LeakyRelu_72_output_0 0=32 1=3 4=1 5=1 6=9216 9=2 -23310=1,2.000000e-01
Split            splitncnn_73             1 4 /LeakyRelu_72_output_0 /LeakyRelu_72_output_0_splitncnn_0 /LeakyRelu_72_output_0_splitncnn_1 /LeakyRelu_72_output_0_splitncnn_2 /LeakyRelu_72_output_0_splitncnn_3
Concat           /Concat_72               2 1 /Add_23_output_0_splitncnn_5 /LeakyRelu_72_output_0_splitncnn_3 /Concat_72_output_0
Convolution      /Conv_92                 1 1 /Concat_72_output_0 /LeakyRelu_73_output_0 0=32 1=3 4=1 5=1 6=18432 9=2 -23310=1,2.000000e-01
Split            splitncnn_74             1 3 /LeakyRelu_73_output_0 /LeakyRelu_73_output_0_splitncnn_0 /LeakyRelu_73_output_0_splitncnn_1 /LeakyRelu_73_output_0_splitncnn_2
Concat           /Concat_73               3 1 /Add_23_output_0_splitncnn_4 /LeakyRelu_72_output_0_splitncnn_2 /LeakyRelu_73_output_0_splitncnn_2 /Concat_73_output_0
Convolution      /Conv_93                 1 1 /Concat_73_output_0 /LeakyRelu_74_output_0 0=32 1=3 4=1 5=1 6=27648 9=2 -23310=1,2.000000e-01
Split            splitncnn_75             1 2 /LeakyRelu_74_output_0 /LeakyRelu_74_output_0_splitncnn_0 /LeakyRelu_74_output_0_splitncnn_1
Concat           /Concat_74               4 1 /Add_23_output_0_splitncnn_3 /LeakyRelu_72_output_0_splitncnn_1 /LeakyRelu_73_output_0_splitncnn_1 /LeakyRelu_74_output_0_splitncnn_1 /Concat_74_output_0
Convolution      /Conv_94                 1 1 /Concat_74_output_0 /LeakyRelu_75_output_0 0=32 1=3 4=1 5=1 6=36864 9=2 -23310=1,2.000000e-01
Concat           /Concat_75               5 1 /Add_23_output_0_splitncnn_2 /LeakyRelu_72_output_0_splitncnn_0 /LeakyRelu_73_output_0_splitncnn_0 /LeakyRelu_74_output_0_splitncnn_0 /LeakyRelu_75_output_0 /Concat_75_output_0
Convolution      /Conv_95                 1 1 /Concat_75_output_0 /Conv_95_output_0 0=32 1=3 4=1 5=1 6=46080
Eltwise          /Add_24                  2 1 /Conv_95_output_0 /Add_23_output_0_splitncnn_1 /Add_24_output_0 0=1 -23301=2,2.000000e-01,1.000000e+00
Split            splitncnn_76             1 6 /Add_24_output_0 /Add_24_output_0_splitncnn_0 /Add_24_output_0_splitncnn_1 /Add_24_output_0_splitncnn_2 /Add_24_output_0_splitncnn_3 /Add_24_output_0_splitncnn_4 /Add_24_output_0_splitncnn_5
Convolution      /Conv_96                 1 1 /Add_24_output_0_splitncnn_5 /LeakyRelu_76_output_0 0=32 1=3 4=1 5=1 6=9216 9=2 -23310=1,2.000000e-01
Split            splitncnn_77             1 4 /LeakyRelu_76_output_0 /LeakyRelu_76_output_0_splitncnn_0 /LeakyRelu_76_output_0_splitncnn_1 /LeakyRelu_76_output_0_splitncnn_2 /LeakyRelu_76_output_0_splitncnn_3
Concat           /Concat_76               2 1 /Add_24_output_0_splitncnn_4 /LeakyRelu_76_output_0_splitncnn_3 /Concat_76_output_0
Convolution      /Conv_97                 1 1 /Concat_76_output_0 /LeakyRelu_77_output_0 0=32 1=3 4=1 5=1 6=18432 9=2 -23310=1,2.000000e-01
Split            splitncnn_78             1 3 /LeakyRelu_77_output_0 /LeakyRelu_77_output_0_splitncnn_0 /LeakyRelu_77_output_0_splitncnn_1 /LeakyRelu_77_output_0_splitncnn_2
Concat           /Concat_77               3 1 /Add_24_output_0_splitncnn_3 /LeakyRelu_76_output_0_splitncnn_2 /LeakyRelu_77_output_0_splitncnn_2 /Concat_77_output_0
Convolution      /Conv_98                 1 1 /Concat_77_output_0 /LeakyRelu_78_output_0 0=32 1=3 4=1 5=1 6=27648 9=2 -23310=1,2.000000e-01
Split            splitncnn_79             1 2 /LeakyRelu_78_output_0 /LeakyRelu_78_output_0_splitncnn_0 /LeakyRelu_78_output_0_splitncnn_1
Concat           /Concat_78               4 1 /Add_24_output_0_splitncnn_2 /LeakyRelu_76_output_0_splitncnn_1 /LeakyRelu_77_output_0_splitncnn_1 /LeakyRelu_78_output_0_splitncnn_1 /Concat_78_output_0
Convolution      /Conv_99                 1 1 /Concat_78_output_0 /LeakyRelu_79_output_0 0=32 1=3 4=1 5=1 6=36864 9=2 -23310=1,2.000000e-01
Concat           /Concat_79               5 1 /Add_24_output_0_splitncnn_1 /LeakyRelu_76_output_0_splitncnn_0 /LeakyRelu_77_output_0_splitncnn_0 /LeakyRelu_78_output_0_splitncnn_0 /LeakyRelu_79_output_0 /Concat_79_output_0
Convolution      /Conv_100                1 1 /Concat_79_output_0 /Conv_100_output_0 0=32 1=3 4=1 5=1 6=46080
Eltwise          /Add_25                  2 1 /Conv_100_output_0 /Add_24_output_0_splitncnn_0 /Add_25_output_0 0=1 -23301=2,2.000000e-01,1.000000e+00
Split            splitncnn_80             1 6 /Add_25_output_0 /Add_25_output_0_splitncnn_0 /Add_25_output_0_splitncnn_1 /Add_25_output_0_splitncnn_2 /Add_25_output_0_splitncnn_3 /Add_25_output_0_splitncnn_4 /Add_25_output_0_splitncnn_5
Convolution      /Conv_101                1 1 /Add_25_output_0_splitncnn_5 /LeakyRelu_80_output_0 0=32 1=3 4=1 5=1 6=9216 9=2 -23310=1,2.000000e-01
Split            splitncnn_81             1 4 /LeakyRelu_80_output_0 /LeakyRelu_80_output_0_splitncnn_0 /LeakyRelu_80_output_0_splitncnn_1 /LeakyRelu_80_output_0_splitncnn_2 /LeakyRelu_80_output_0_splitncnn_3
Concat           /Concat_80               2 1 /Add_25_output_0_splitncnn_4 /LeakyRelu_80_output_0_splitncnn_3 /Concat_80_output_0
Convolution      /Conv_102                1 1 /Concat_80_output_0 /LeakyRelu_81_output_0 0=32 1=3 4=1 5=1 6=18432 9=2 -23310=1,2.000000e-01
Split            splitncnn_82             1 3 /LeakyRelu_81_output_0 /LeakyRelu_81_output_0_splitncnn_0 /LeakyRelu_81_output_0_splitncnn_1 /LeakyRelu_81_output_0_splitncnn_2
Concat           /Concat_81               3 1 /Add_25_output_0_splitncnn_3 /LeakyRelu_80_output_0_splitncnn_2 /LeakyRelu_81_output_0_splitncnn_2 /Concat_81_output_0
Convolution      /Conv_103                1 1 /Concat_81_output_0 /LeakyRelu_82_output_0 0=32 1=3 4=1 5=1 6=27648 9=2 -23310=1,2.000000e-01
Split            splitncnn_83             1 2 /LeakyRelu_82_output_0 /LeakyRelu_82_output_0_splitncnn_0 /LeakyRelu_82_output_0_splitncnn_1
Concat           /Concat_82               4 1 /Add_25_output_0_splitncnn_2 /LeakyRelu_80_output_0_splitncnn_1 /LeakyRelu_81_output_0_splitncnn_1 /LeakyRelu_82_output_0_splitncnn_1 /Concat_82_output_0
Convolution      /Conv_104                1 1 /Concat_82_output_0 /LeakyRelu_83_output_0 0=32 1=3 4=1 5=1 6=36864 9=2 -23310=1,2.000000e-01
Concat           /Concat_83               5 1 /Add_25_output_0_splitncnn_1 /LeakyRelu_80_output_0_splitncnn_0 /LeakyRelu_81_output_0_splitncnn_0 /LeakyRelu_82_output_0_splitncnn_0 /LeakyRelu_83_output_0 /Concat_83_output_0
Convolution      /Conv_105                1 1 /Concat_83_output_0 /Conv_105_output_0 0=32 1=3 4=1 5=1 6=46080
Eltwise          /Add_26                  2 1 /Conv_105_output_0 /Add_25_output_0_splitncnn_0 /Add_26_output_0 0=1 -23301=2,2.000000e-01,1.000000e+00
Eltwise          /Add_27                  2 1 /Add_26_output_0 /Add_23_output_0_splitncnn_0 /Add_27_output_0 0=1 -23301=2,2.000000e-01,1.000000e+00
Split            splitncnn_84             1 7 /Add_27_output_0 /Add_27_output_0_splitncnn_0 /Add_27_output_0_splitncnn_1 /Add_27_output_0_splitncnn_2 /Add_27_output_0_splitncnn_3 /Add_27_output_0_splitncnn_4 /Add_27_output_0_splitncnn_5 /Add_27_output_0_splitncnn_6
Convolution      /Conv_106                1 1 /Add_27_output_0_splitncnn_6 /LeakyRelu_84_output_0 0=32 1=3 4=1 5=1 6=9216 9=2 -23310=1,2.000000e-01
Split            splitncnn_85             1 4 /LeakyRelu_84_output_0 /LeakyRelu_84_output_0_splitncnn_0 /LeakyRelu_84_output_0_splitncnn_1 /LeakyRelu_84_output_0_splitncnn_2 /LeakyRelu_84_output_0_splitncnn_3
Concat           /Concat_84               2 1 /Add_27_output_0_splitncnn_5 /LeakyRelu_84_output_0_splitncnn_3 /Concat_84_output_0
Convolution      /Conv_107                1 1 /Concat_84_output_0 /LeakyRelu_85_output_0 0=32 1=3 4=1 5=1 6=18432 9=2 -23310=1,2.000000e-01
Split            splitncnn_86             1 3 /LeakyRelu_85_output_0 /LeakyRelu_85_output_0_splitncnn_0 /LeakyRelu_85_output_0_splitncnn_1 /LeakyRelu_85_output_0_splitncnn_2
Concat           /Concat_85               3 1 /Add_27_output_0_splitncnn_4 /LeakyRelu_84_output_0_splitncnn_2 /LeakyRelu_85_output_0_splitncnn_2 /Concat_85_output_0
Convolution      /Conv_108                1 1 /Concat_85_output_0 /LeakyRelu_86_output_0 0=32 1=3 4=1 5=1 6=27648 9=2 -23310=1,2.000000e-01
Split            splitncnn_87             1 2 /LeakyRelu_86_output_0 /LeakyRelu_86_output_0_splitncnn_0 /LeakyRelu_86_output_0_splitncnn_1
Concat           /Concat_86               4 1 /Add_27_output_0_splitncnn_3 /LeakyRelu_84_output_0_splitncnn_1 /LeakyRelu_85_output_0_splitncnn_1 /LeakyRelu_86_output_0_splitncnn_1 /Concat_86_output_0
Convolution      /Conv_109                1 1 /Concat_86_output_0 /LeakyRelu_87_output_0 0=32 1=3 4=1 5=1 6=36864 9=2 -23310=1,2.000000e-01
Concat           /Concat_87               5 1 /Add_27_output_0_splitncnn_2 /LeakyRelu_84_output_0_splitncnn_0 /LeakyRelu_85_output_0_splitncnn_0 /LeakyRelu_86_output_0_splitncnn_0 /LeakyRelu_87_output_0 /Concat_87_output_0
Convolution      /Conv_110                1 1 /Concat_87_output_0 /Conv_110_output_0 0=32 1=3 4=1 5=1 6=46080
Eltwise          /Add_28                  2 1 /Conv_110_output_0 /Add_27_output_0_splitncnn_1 /Add_28_output_0 0=1 -23301=2,2.000000e-01,1.000000e+00
Split            splitncnn_88             1 6 /Add_28_output_0 /Add_28_output_0_splitncnn_0 /Add_28_output_0_splitncnn_1 /Add_28_output_0_splitncnn_2 /Add_28_output_0_splitncnn_3 /Add_28_output_0_splitncnn_4 /Add_28_output_0_splitncnn_5
Convolution      /Conv_111                1 1 /Add_28_output_0_splitncnn_5 /LeakyRelu_88_output_0 0=32 1=3 4=1 5=1 6=9216 9=2 -23310=1,2.000000e-01
Split            splitncnn_89             1 4 /LeakyRelu_88_output_0 /LeakyRelu_88_output_0_splitncnn_0 /LeakyRelu_88_output_0_splitncnn_1 /LeakyRelu_88_output_0_splitncnn_2 /LeakyRelu_88_output_0_splitncnn_3
Concat           /Concat_88               2 1 /Add_28_output_0_splitncnn_4 /LeakyRelu_88_output_0_splitncnn_3 /Concat_88_output_0
Convolution      /Conv_112                1 1 /Concat_88_output_0 /LeakyRelu_89_output_0 0=32 1=3 4=1 5=1 6=18432 9=2 -23310=1,2.000000e-01
Split            splitncnn_90             1 3 /LeakyRelu_89_output_0 /LeakyRelu_89_output_0_splitncnn_0 /LeakyRelu_89_output_0_splitncnn_1 /LeakyRelu_89_output_0_splitncnn_2
Concat           /Concat_89               3 1 /Add_28_output_0_splitncnn_3 /LeakyRelu_88_output_0_splitncnn_2 /LeakyRelu_89_output_0_splitncnn_2 /Concat_89_output_0
Convolution      /Conv_113                1 1 /Concat_89_output_0 /LeakyRelu_90_output_0 0=32 1=3 4=1 5=1 6=27648 9=2 -23310=1,2.000000e-01
Split            splitncnn_91             1 2 /LeakyRelu_90_output_0 /LeakyRelu_90_output_0_splitncnn_0 /LeakyRelu_90_output_0_splitncnn_1
Concat           /Concat_90               4 1 /Add_28_output_0_splitncnn_2 /LeakyRelu_88_output_0_splitncnn_1 /LeakyRelu_89_output_0_splitncnn_1 /LeakyRelu_90_output_0_splitncnn_1 /Concat_90_output_0
Convolution      /Conv_114                1 1 /Concat_90_output_0 /LeakyRelu_91_output_0 0=32 1=3 4=1 5=1 6=36864 9=2 -23310=1,2.000000e-01
Concat           /Concat_91               5 1 /Add_28_output_0_splitncnn_1 /LeakyRelu_88_output_0_splitncnn_0 /LeakyRelu_89_output_0_splitncnn_0 /LeakyRelu_90_output_0_splitncnn_0 /LeakyRelu_91_output_0 /Concat_91_output_0
Convolution      /Conv_115                1 1 /Concat_91_output_0 /Conv_115_output_0 0=32 1=3 4=1 5=1 6=46080
Eltwise          /Add_29                  2 1 /Conv_115_output_0 /Add_28_output_0_splitncnn_0 /Add_29_output_0 0=1 -23301=2,2.000000e-01,1.000000e+00
Split            splitncnn_92             1 6 /Add_29_output_0 /Add_29_output_0_splitncnn_0 /Add_29_output_0_splitncnn_1 /Add_29_output_0_splitncnn_2 /Add_29_output_0_splitncnn_3 /Add_29_output_0_splitncnn_4 /Add_29_output_0_splitncnn_5
Convolution      /Conv_116                1 1 /Add_29_output_0_splitncnn_5 /LeakyRelu_92_output_0 0=32 1=3 4=1 5=1 6=9216 9=2 -23310=1,2.000000e-01
Split            splitncnn_93             1 4 /LeakyRelu_92_output_0 /LeakyRelu_92_output_0_splitncnn_0 /LeakyRelu_92_output_0_splitncnn_1 /LeakyRelu_92_output_0_splitncnn_2 /LeakyRelu_92_output_0_splitncnn_3
Concat           /Concat_92               2 1 /Add_29_output_0_splitncnn_4 /LeakyRelu_92_output_0_splitncnn_3 /Concat_92_output_0
Convolution      /Conv_117                1 1 /Concat_92_output_0 /LeakyRelu_93_output_0 0=32 1=3 4=1 5=1 6=18432 9=2 -23310=1,2.000000e-01
Split            splitncnn_94             1 3 /LeakyRelu_93_output_0 /LeakyRelu_93_output_0_splitncnn_0 /LeakyRelu_93_output_0_splitncnn_1 /LeakyRelu_93_output_0_splitncnn_2
Concat           /Concat_93               3 1 /Add_29_output_0_splitncnn_3 /LeakyRelu_92_output_0_splitncnn_2 /LeakyRelu_93_output_0_splitncnn_2 /Concat_93_output_0
Convolution      /Conv_118                1 1 /Concat_93_output_0 /LeakyRelu_94_output_0 0=32 1=3 4=1 5=1 6=27648 9=2 -23310=1,2.000000e-01
Split            splitncnn_95             1 2 /LeakyRelu_94_output_0 /LeakyRelu_94_output_0_splitncnn_0 /LeakyRelu_94_output_0_splitncnn_1
Concat           /Concat_94               4 1 /Add_29_output_0_splitncnn_2 /LeakyRelu_92_output_0_splitncnn_1 /LeakyRelu_93_output_0_splitncnn_1 /LeakyRelu_94_output_0_splitncnn_1 /Concat_94_output_0
Convolution      /Conv_119                1 1 /Concat_94_output_0 /LeakyRelu_95_output_0 0=32 1=3 4=1 5=1 6=36864 9=2 -23310=1,2.000000e-01
Concat           /Concat_95               5 1 /Add_29_output_0_splitncnn_1 /LeakyRelu_92_output_0_splitncnn_0 /LeakyRelu_93_output_0_splitncnn_0 /LeakyRelu_94_output_0_splitncnn_0 /LeakyRelu_95_output_0 /Concat_95_output_0
Convolution      /Conv_120                1 1 /Concat_95_output_0 /Conv_120_output_0 0=32 1=3 4=1 5=1 6=46080
Eltwise          /Add_30                  2 1 /Conv_120_output_0 /Add_29_output_0_splitncnn_0 /Add_30_output_0 0=1 -23301=2,2.000000e-01,1.000000e+00
Eltwise          /Add_31                  2 1 /Add_30_output_0 /Add_27_output_0_splitncnn_0 /Add_31_output_0 0=1 -23301=2,2.000000e-01,1.000000e+00
Split            splitncnn_96             1 7 /Add_31_output_0 /Add_31_output_0_splitncnn_0 /Add_31_output_0_splitncnn_1 /Add_31_output_0_splitncnn_2 /Add_31_output_0_splitncnn_3 /Add_31_output_0_splitncnn_4 /Add_31_output_0_splitncnn_5 /Add_31_output_0_splitncnn_6
Convolution      /Conv_121                1 1 /Add_31_output_0_splitncnn_6 /LeakyRelu_96_output_0 0=32 1=3 4=1 5=1 6=9216 9=2 -23310=1,2.000000e-01
Split            splitncnn_97             1 4 /LeakyRelu_96_output_0 /LeakyRelu_96_output_0_splitncnn_0 /LeakyRelu_96_output_0_splitncnn_1 /LeakyRelu_96_output_0_splitncnn_2 /LeakyRelu_96_output_0_splitncnn_3
Concat           /Concat_96               2 1 /Add_31_output_0_splitncnn_5 /LeakyRelu_96_output_0_splitncnn_3 /Concat_96_output_0
Convolution      /Conv_122                1 1 /Concat_96_output_0 /LeakyRelu_97_output_0 0=32 1=3 4=1 5=1 6=18432 9=2 -23310=1,2.000000e-01
Split            splitncnn_98             1 3 /LeakyRelu_97_output_0 /LeakyRelu_97_output_0_splitncnn_0 /LeakyRelu_97_output_0_splitncnn_1 /LeakyRelu_97_output_0_splitncnn_2
Concat           /Concat_97               3 1 /Add_31_output_0_splitncnn_4 /LeakyRelu_96_output_0_splitncnn_2 /LeakyRelu_97_output_0_splitncnn_2 /Concat_97_output_0
Convolution      /Conv_123                1 1 /Concat_97_output_0 /LeakyRelu_98_output_0 0=32 1=3 4=1 5=1 6=27648 9=2 -23310=1,2.000000e-01
Split            splitncnn_99             1 2 /LeakyRelu_98_output_0 /LeakyRelu_98_output_0_splitncnn_0 /LeakyRelu_98_output_0_splitncnn_1
Concat           /Concat_98               4 1 /Add_31_output_0_splitncnn_3 /LeakyRelu_96_output_0_splitncnn_1 /LeakyRelu_97_output_0_splitncnn_1 /LeakyRelu_98_output_0_splitncnn_1 /Concat_98_output_0
Convolution      /Conv_124                1 1 /Concat_98_output_0 /LeakyRelu_99_output_0 0=32 1=3 4=1 5=1 6=36864 9=2 -23310=1,2.000000e-01
Concat           /Concat_99               5 1 /Add_31_output_0_splitncnn_2 /LeakyRelu_96_output_0_splitncnn_0 /LeakyRelu_97_output_0_splitncnn_0 /LeakyRelu_98_output_0_splitncnn_0 /LeakyRelu_99_output_0 /Concat_99_output_0
Convolution      /Conv_125                1 1 /Concat_99_output_0 /Conv_125_output_0 0=32 1=3 4=1 5=1 6=46080
Eltwise          /Add_32                  2 1 /Conv_125_output_0 /Add_31_output_0_splitncnn_1 /Add_32_output_0 0=1 -23301=2,2.000000e-01,1.000000e+00
Split            splitncnn_100            1 6 /Add_32_output_0 /Add_32_output_0_splitncnn_0 /Add_32_output_0_splitncnn_1 /Add_32_output_0_splitncnn_2 /Add_32_output_0_splitncnn_3 /Add_32_output_0_splitncnn_4 /Add_32_output_0_splitncnn_5
Convolution      /Conv_126                1 1 /Add_32_output_0_splitncnn_5 /LeakyRelu_100_output_0 0=32 1=3 4=1 5=1 6=9216 9=2 -23310=1,2.000000e-01
Split            splitncnn_101            1 4 /LeakyRelu_100_output_0 /LeakyRelu_100_output_0_splitncnn_0 /LeakyRelu_100_output_0_splitncnn_1 /LeakyRelu_100_output_0_splitncnn_2 /LeakyRelu_100_output_0_splitncnn_3
Concat           /Concat_100              2 1 /Add_32_output_0_splitncnn_4 /LeakyRelu_100_output_0_splitncnn_3 /Concat_100_output_0
Convolution      /Conv_127                1 1 /Concat_100_output_0 /LeakyRelu_101_output_0 0=32 1=3 4=1 5=1 6=18432 9=2 -23310=1,2.000000e-01
Split            splitncnn_102            1 3 /LeakyRelu_101_output_0 /LeakyRelu_101_output_0_splitncnn_0 /LeakyRelu_101_output_0_splitncnn_1 /LeakyRelu_101_output_0_splitncnn_2
Concat           /Concat_101              3 1 /Add_32_output_0_splitncnn_3 /LeakyRelu_100_output_0_splitncnn_2 /LeakyRelu_101_output_0_splitncnn_2 /Concat_101_output_0
Convolution      /Conv_128                1 1 /Concat_101_output_0 /LeakyRelu_102_output_0 0=32 1=3 4=1 5=1 6=27648 9=2 -23310=1,2.000000e-01
Split            splitncnn_103            1 2 /LeakyRelu_102_output_0 /LeakyRelu_102_output_0_splitncnn_0 /LeakyRelu_102_output_0_splitncnn_1
Concat           /Concat_102              4 1 /Add_32_output_0_splitncnn_2 /LeakyRelu_100_output_0_splitncnn_1 /LeakyRelu_101_output_0_splitncnn_1 /LeakyRelu_102_output_0_splitncnn_1 /Concat_102_output_0
Convolution      /Conv_129                1 1 /Concat_102_output_0 /LeakyRelu_103_output_0 0=32 1=3 4=1 5=1 6=36864 9=2 -23310=1,2.000000e-01
Concat           /Concat_103              5 1 /Add_32_output_0_splitncnn_1 /LeakyRelu_100_output_0_splitncnn_0 /LeakyRelu_101_output_0_splitncnn_0 /LeakyRelu_102_output_0_splitncnn_0 /LeakyRelu_103_output_0 /Concat_103_output_0
Convolution      /Conv_130                1 1 /Concat_103_output_0 /Conv_130_output_0 0=32 1=3 4=1 5=1 6=46080
Eltwise          /Add_33                  2 1 /Conv_130_output_0 /Add_32_output_0_splitncnn_0 /Add_33_output_0 0=1 -23301=2,2.000000e-01,1.000000e+00
Split            splitncnn_104            1 6 /Add_33_output_0 /Add_33_output_0_splitncnn_0 /Add_33_output_0_splitncnn_1 /Add_33_output_0_splitncnn_2 /Add_33_output_0_splitncnn_3 /Add_33_output_0_splitncnn_4 /Add_33_output_0_splitncnn_5
Convolution      /Conv_131                1 1 /Add_33_output_0_splitncnn_5 /LeakyRelu_104_output_0 0=32 1=3 4=1 5=1 6=9216 9=2 -23310=1,2.000000e-01
Split            splitncnn_105            1 4 /LeakyRelu_104_output_0 /LeakyRelu_104_output_0_splitncnn_0 /LeakyRelu_104_output_0_splitncnn_1 /LeakyRelu_104_output_0_splitncnn_2 /LeakyRelu_104_output_0_splitncnn_3
Concat           /Concat_104              2 1 /Add_33_output_0_splitncnn_4 /LeakyRelu_104_output_0_splitncnn_3 /Concat_104_output_0
Convolution      /Conv_132                1 1 /Concat_104_output_0 /LeakyRelu_105_output_0 0=32 1=3 4=1 5=1 6=18432 9=2 -23310=1,2.000000e-01
Split            splitncnn_106            1 3 /LeakyRelu_105_output_0 /LeakyRelu_105_output_0_splitncnn_0 /LeakyRelu_105_output_0_splitncnn_1 /LeakyRelu_105_output_0_splitncnn_2
Concat           /Concat_105              3 1 /Add_33_output_0_splitncnn_3 /LeakyRelu_104_output_0_splitncnn_2 /LeakyRelu_105_output_0_splitncnn_2 /Concat_105_output_0
Convolution      /Conv_133                1 1 /Concat_105_output_0 /LeakyRelu_106_output_0 0=32 1=3 4=1 5=1 6=27648 9=2 -23310=1,2.000000e-01
Split            splitncnn_107            1 2 /LeakyRelu_106_output_0 /LeakyRelu_106_output_0_splitncnn_0 /LeakyRelu_106_output_0_splitncnn_1
Concat           /Concat_106              4 1 /Add_33_output_0_splitncnn_2 /LeakyRelu_104_output_0_splitncnn_1 /LeakyRelu_105_output_0_splitncnn_1 /LeakyRelu_106_output_0_splitncnn_1 /Concat_106_output_0
Convolution      /Conv_134                1 1 /Concat_106_output_0 /LeakyRelu_107_output_0 0=32 1=3 4=1 5=1 6=36864 9=2 -23310=1,2.000000e-01
Concat           /Concat_107              5 1 /Add_33_output_0_splitncnn_1 /LeakyRelu_104_output_0_splitncnn_0 /LeakyRelu_105_output_0_splitncnn_0 /LeakyRelu_106_output_0_splitncnn_0 /LeakyRelu_107_output_0 /Concat_107_output_0
Convolution      /Conv_135                1 1 /Concat_107_output_0 /Conv_135_output_0 0=32 1=3 4=1 5=1 6=46080
Eltwise          /Add_34                  2 1 /Conv_135_output_0 /Add_33_output_0_splitncnn_0 /Add_34_output_0 0=1 -23301=2,2.000000e-01,1.000000e+00
Eltwise          /Add_35                  2 1 /Add_34_output_0 /Add_31_output_0_splitncnn_0 /Add_35_output_0 0=1 -23301=2,2.000000e-01,1.000000e+00
Split            splitncnn_108            1 7 /Add_35_output_0 /Add_35_output_0_splitncnn_0 /Add_35_output_0_splitncnn_1 /Add_35_output_0_splitncnn_2 /Add_35_output_0_splitncnn_3 /Add_35_output_0_splitncnn_4 /Add_35_output_0_splitncnn_5 /Add_35_output_0_splitncnn_6
Convolution      /Conv_136                1 1 /Add_35_output_0_splitncnn_6 /LeakyRelu_108_output_0 0=32 1=3 4=1 5=1 6=9216 9=2 -23310=1,2.000000e-01
Split            splitncnn_109            1 4 /LeakyRelu_108_output_0 /LeakyRelu_108_output_0_splitncnn_0 /LeakyRelu_108_output_0_splitncnn_1 /LeakyRelu_108_output_0_splitncnn_2 /LeakyRelu_108_output_0_splitncnn_3
Concat           /Concat_108              2 1 /Add_35_output_0_splitncnn_5 /LeakyRelu_108_output_0_splitncnn_3 /Concat_108_output_0
Convolution      /Conv_137                1 1 /Concat_108_output_0 /LeakyRelu_109_output_0 0=32 1=3 4=1 5=1 6=18432 9=2 -23310=1,2.000000e-01
Split            splitncnn_110            1 3 /LeakyRelu_109_output_0 /LeakyRelu_109_output_0_splitncnn_0 /LeakyRelu_109_output_0_splitncnn_1 /LeakyRelu_109_output_0_splitncnn_2
Concat           /Concat_109              3 1 /Add_35_output_0_splitncnn_4 /LeakyRelu_108_output_0_splitncnn_2 /LeakyRelu_109_output_0_splitncnn_2 /Concat_109_output_0
Convolution      /Conv_138                1 1 /Concat_109_output_0 /LeakyRelu_110_output_0 0=32 1=3 4=1 5=1 6=27648 9=2 -23310=1,2.000000e-01
Split            splitncnn_111            1 2 /LeakyRelu_110_output_0 /LeakyRelu_110_output_0_splitncnn_0 /LeakyRelu_110_output_0_splitncnn_1
Concat           /Concat_110              4 1 /Add_35_output_0_splitncnn_3 /LeakyRelu_108_output_0_splitncnn_1 /LeakyRelu_109_output_0_splitncnn_1 /LeakyRelu_110_output_0_splitncnn_1 /Concat_110_output_0
Convolution      /Conv_139                1 1 /Concat_110_output_0 /LeakyRelu_111_output_0 0=32 1=3 4=1 5=1 6=36864 9=2 -23310=1,2.000000e-01
Concat           /Concat_111              5 1 /Add_35_output_0_splitncnn_2 /LeakyRelu_108_output_0_splitncnn_0 /LeakyRelu_109_output_0_splitncnn_0 /LeakyRelu_110_output_0_splitncnn_0 /LeakyRelu_111_output_0 /Concat_111_output_0
Convolution      /Conv_140                1 1 /Concat_111_output_0 /Conv_140_output_0 0=32 1=3 4=1 5=1 6=46080
Eltwise          /Add_36                  2 1 /Conv_140_output_0 /Add_35_output_0_splitncnn_1 /Add_36_output_0 0=1 -23301=2,2.000000e-01,1.000000e+00
Split            splitncnn_112            1 6 /Add_36_output_0 /Add_36_output_0_splitncnn_0 /Add_36_output_0_splitncnn_1 /Add_36_output_0_splitncnn_2 /Add_36_output_0_splitncnn_3 /Add_36_output_0_splitncnn_4 /Add_36_output_0_splitncnn_5
Convolution      /Conv_141                1 1 /Add_36_output_0_splitncnn_5 /LeakyRelu_112_output_0 0=32 1=3 4=1 5=1 6=9216 9=2 -23310=1,2.000000e-01
Split            splitncnn_113            1 4 /LeakyRelu_112_output_0 /LeakyRelu_112_output_0_splitncnn_0 /LeakyRelu_112_output_0_splitncnn_1 /LeakyRelu_112_output_0_splitncnn_2 /LeakyRelu_112_output_0_splitncnn_3
Concat           /Concat_112              2 1 /Add_36_output_0_splitncnn_4 /LeakyRelu_112_output_0_splitncnn_3 /Concat_112_output_0
Convolution      /Conv_142                1 1 /Concat_112_output_0 /LeakyRelu_113_output_0 0=32 1=3 4=1 5=1 6=18432 9=2 -23310=1,2.000000e-01
Split            splitncnn_114            1 3 /LeakyRelu_113_output_0 /LeakyRelu_113_output_0_splitncnn_0 /LeakyRelu_113_output_0_splitncnn_1 /LeakyRelu_113_output_0_splitncnn_2
Concat           /Concat_113              3 1 /Add_36_output_0_splitncnn_3 /LeakyRelu_112_output_0_splitncnn_2 /LeakyRelu_113_output_0_splitncnn_2 /Concat_113_output_0
Convolution      /Conv_143                1 1 /Concat_113_output_0 /LeakyRelu_114_output_0 0=32 1=3 4=1 5=1 6=27648 9=2 -23310=1,2.000000e-01
Split            splitncnn_115            1 2 /LeakyRelu_114_output_0 /LeakyRelu_114_output_0_splitncnn_0 /LeakyRelu_114_output_0_splitncnn_1
Concat           /Concat_114              4 1 /Add_36_output_0_splitncnn_2 /LeakyRelu_112_output_0_splitncnn_1 /LeakyRelu_113_output_0_splitncnn_1 /LeakyRelu_114_output_0_splitncnn_1 /Concat_114_output_0
Convolution      /Conv_144                1 1 /Concat_114_output_0 /LeakyRelu_115_output_0 0=32 1=3 4=1 5=1 6=36864 9=2 -23310=1,2.000000e-01
Concat           /Concat_115              5 1 /Add_36_output_0_splitncnn_1 /LeakyRelu_112_output_0_splitncnn_0 /LeakyRelu_113_output_0_splitncnn_0 /LeakyRelu_114_output_0_splitncnn_0 /LeakyRelu_115_output_0 /Concat_115_output_0
Convolution      /Conv_145                1 1 /Concat_115_output_0 /Conv_145_output_0 0=32 1=3 4=1 5=1 6=46080
Eltwise          /Add_37                  2 1 /Conv_145_output_0 /Add_36_output_0_splitncnn_0 /Add_37_output_0 0=1 -23301=2,2.000000e-01,1.000000e+00
Split            splitncnn_116            1 6 /Add_37_output_0 /Add_37_output_0_splitncnn_0 /Add_37_output_0_splitncnn_1 /Add_37_output_0_splitncnn_2 /Add_37_output_0_splitncnn_3 /Add_37_output_0_splitncnn_4 /Add_37_output_0_splitncnn_5
Convolution      /Conv_146                1 1 /Add_37_output_0_splitncnn_5 /LeakyRelu_116_output_0 0=32 1=3 4=1 5=1 6=9216 9=2 -23310=1,2.000000e-01
Split            splitncnn_117            1 4 /LeakyRelu_116_output_0 /LeakyRelu_116_output_0_splitncnn_0 /LeakyRelu_116_output_0_splitncnn_1 /LeakyRelu_116_output_0_splitncnn_2 /LeakyRelu_116_output_0_splitncnn_3
Concat           /Concat_116              2 1 /Add_37_output_0_splitncnn_4 /LeakyRelu_116_output_0_splitncnn_3 /Concat_116_output_0
Convolution      /Conv_147                1 1 /Concat_116_output_0 /LeakyRelu_117_output_0 0=32 1=3 4=1 5=1 6=18432 9=2 -23310=1,2.000000e-01
Split            splitncnn_118            1 3 /LeakyRelu_117_output_0 /LeakyRelu_117_output_0_splitncnn_0 /LeakyRelu_117_output_0_splitncnn_1 /LeakyRelu_117_output_0_splitncnn_2
Concat           /Concat_117              3 1 /Add_37_output_0_splitncnn_3 /LeakyRelu_116_output_0_splitncnn_2 /LeakyRelu_117_output_0_splitncnn_2 /Concat_117_output_0
Convolution      /Conv_148                1 1 /Concat_117_output_0 /LeakyRelu_118_output_0 0=32 1=3 4=1 5=1 6=27648 9=2 -23310=1,2.000000e-01
Split            splitncnn_119            1 2 /LeakyRelu_118_output_0 /LeakyRelu_118_output_0_splitncnn_0 /LeakyRelu_118_output_0_splitncnn_1
Concat           /Concat_118              4 1 /Add_37_output_0_splitncnn_2 /LeakyRelu_116_output_0_splitncnn_1 /LeakyRelu_117_output_0_splitncnn_1 /LeakyRelu_118_output_0_splitncnn_1 /Concat_118_output_0
Convolution      /Conv_149                1 1 /Concat_118_output_0 /LeakyRelu_119_output_0 0=32 1=3 4=1 5=1 6=36864 9=2 -23310=1,2.000000e-01
Concat           /Concat_119              5 1 /Add_37_output_0_splitncnn_1 /LeakyRelu_116_output_0_splitncnn_0 /LeakyRelu_117_output_0_splitncnn_0 /LeakyRelu_118_output_0_splitncnn_0 /LeakyRelu_119_output_0 /Concat_119_output_0
Convolution      /Conv_150                1 1 /Concat_119_output_0 /Conv_150_output_0 0=32 1=3 4=1 5=1 6=46080
Eltwise          /Add_38                  2 1 /Conv_150_output_0 /Add_37_output_0_splitncnn_0 /Add_38_output_0 0=1 -23301=2,2.000000e-01,1.000000e+00
Eltwise          /Add_39                  2 1 /Add_38_output_0 /Add_35_output_0_splitncnn_0 /Add_39_output_0 0=1 -23301=2,2.000000e-01,1.000000e+00
Split            splitncnn_120            1 7 /Add_39_output_0 /Add_39_output_0_splitncnn_0 /Add_39_output_0_splitncnn_1 /Add_39_output_0_splitncnn_2 /Add_39_output_0_splitncnn_3 /Add_39_output_0_splitncnn_4 /Add_39_output_0_splitncnn_5 /Add_39_output_0_splitncnn_6
Convolution      /Conv_151                1 1 /Add_39_output_0_splitncnn_6 /LeakyRelu_120_output_0 0=32 1=3 4=1 5=1 6=9216 9=2 -23310=1,2.000000e-01
Split            splitncnn_121            1 4 /LeakyRelu_120_output_0 /LeakyRelu_120_output_0_splitncnn_0 /LeakyRelu_120_output_0_splitncnn_1 /LeakyRelu_120_output_0_splitncnn_2 /LeakyRelu_120_output_0_splitncnn_3
Concat           /Concat_120              2 1 /Add_39_output_0_splitncnn_5 /LeakyRelu_120_output_0_splitncnn_3 /Concat_120_output_0
Convolution      /Conv_152                1 1 /Concat_120_output_0 /LeakyRelu_121_output_0 0=32 1=3 4=1 5=1 6=18432 9=2 -23310=1,2.000000e-01
Split            splitncnn_122            1 3 /LeakyRelu_121_output_0 /LeakyRelu_121_output_0_splitncnn_0 /LeakyRelu_121_output_0_splitncnn_1 /LeakyRelu_121_output_0_splitncnn_2
Concat           /Concat_121              3 1 /Add_39_output_0_splitncnn_4 /LeakyRelu_120_output_0_splitncnn_2 /LeakyRelu_121_output_0_splitncnn_2 /Concat_121_output_0
Convolution      /Conv_153                1 1 /Concat_121_output_0 /LeakyRelu_122_output_0 0=32 1=3 4=1 5=1 6=27648 9=2 -23310=1,2.000000e-01
Split            splitncnn_123            1 2 /LeakyRelu_122_output_0 /LeakyRelu_122_output_0_splitncnn_0 /LeakyRelu_122_output_0_splitncnn_1
Concat           /Concat_122              4 1 /Add_39_output_0_splitncnn_3 /LeakyRelu_120_output_0_splitncnn_1 /LeakyRelu_121_output_0_splitncnn_1 /LeakyRelu_122_output_0_splitncnn_1 /Concat_122_output_0
Convolution      /Conv_154                1 1 /Concat_122_output_0 /LeakyRelu_123_output_0 0=32 1=3 4=1 5=1 6=36864 9=2 -23310=1,2.000000e-01
Concat           /Concat_123              5 1 /Add_39_output_0_splitncnn_2 /LeakyRelu_120_output_0_splitncnn_0 /LeakyRelu_121_output_0_splitncnn_0 /LeakyRelu_122_output_0_splitncnn_0 /LeakyRelu_123_output_0 /Concat_123_output_0
Convolution      /Conv_155                1 1 /Concat_123_output_0 /Conv_155_output_0 0=32 1=3 4=1 5=1 6=46080
Eltwise          /Add_40                  2 1 /Conv_155_output_0 /Add_39_output_0_splitncnn_1 /Add_40_output_0 0=1 -23301=2,2.000000e-01,1.000000e+00
Split            splitncnn_124            1 6 /Add_40_output_0 /Add_40_output_0_splitncnn_0 /Add_40_output_0_splitncnn_1 /Add_40_output_0_splitncnn_2 /Add_40_output_0_splitncnn_3 /Add_40_output_0_splitncnn_4 /Add_40_output_0_splitncnn_5
Convolution      /Conv_156                1 1 /Add_40_output_0_splitncnn_5 /LeakyRelu_124_output_0 0=32 1=3 4=1 5=1 6=9216 9=2 -23310=1,2.000000e-01
Split            splitncnn_125            1 4 /LeakyRelu_124_output_0 /LeakyRelu_124_output_0_splitncnn_0 /LeakyRelu_124_output_0_splitncnn_1 /LeakyRelu_124_output_0_splitncnn_2 /LeakyRelu_124_output_0_splitncnn_3
Concat           /Concat_124              2 1 /Add_40_output_0_splitncnn_4 /LeakyRelu_124_output_0_splitncnn_3 /Concat_124_output_0
Convolution      /Conv_157                1 1 /Concat_124_output_0 /LeakyRelu_125_output_0 0=32 1=3 4=1 5=1 6=18432 9=2 -23310=1,2.000000e-01
Split            splitncnn_126            1 3 /LeakyRelu_125_output_0 /LeakyRelu_125_output_0_splitncnn_0 /LeakyRelu_125_output_0_splitncnn_1 /LeakyRelu_125_output_0_splitncnn_2
Concat           /Concat_125              3 1 /Add_40_output_0_splitncnn_3 /LeakyRelu_124_output_0_splitncnn_2 /LeakyRelu_125_output_0_splitncnn_2 /Concat_125_output_0
Convolution      /Conv_158                1 1 /Concat_125_output_0 /LeakyRelu_126_output_0 0=32 1=3 4=1 5=1 6=27648 9=2 -23310=1,2.000000e-01
Split            splitncnn_127            1 2 /LeakyRelu_126_output_0 /LeakyRelu_126_output_0_splitncnn_0 /LeakyRelu_126_output_0_splitncnn_1
Concat           /Concat_126              4 1 /Add_40_output_0_splitncnn_2 /LeakyRelu_124_output_0_splitncnn_1 /LeakyRelu_125_output_0_splitncnn_1 /LeakyRelu_126_output_0_splitncnn_1 /Concat_126_output_0
Convolution      /Conv_159                1 1 /Concat_126_output_0 /LeakyRelu_127_output_0 0=32 1=3 4=1 5=1 6=36864 9=2 -23310=1,2.000000e-01
Concat           /Concat_127              5 1 /Add_40_output_0_splitncnn_1 /LeakyRelu_124_output_0_splitncnn_0 /LeakyRelu_125_output_0_splitncnn_0 /LeakyRelu_126_output_0_splitncnn_0 /LeakyRelu_127_output_0 /Concat_127_output_0
Convolution      /Conv_160                1 1 /Concat_127_output_0 /Conv_160_output_0 0=32 1=3 4=1 5=1 6=46080
Eltwise          /Add_41                  2 1 /Conv_160_output_0 /Add_40_output_0_splitncnn_0 /Add_41_output_0 0=1 -23301=2,2.000000e-01,1.000000e+00
Split            splitncnn_128            1 6 /Add_41_output_0 /Add_41_output_0_splitncnn_0 /Add_41_output_0_splitncnn_1 /Add_41_output_0_splitncnn_2 /Add_41_output_0_splitncnn_3 /Add_41_output_0_splitncnn_4 /Add_41_output_0_splitncnn_5
Convolution      /Conv_161                1 1 /Add_41_output_0_splitncnn_5 /LeakyRelu_128_output_0 0=32 1=3 4=1 5=1 6=9216 9=2 -23310=1,2.000000e-01
Split            splitncnn_129            1 4 /LeakyRelu_128_output_0 /LeakyRelu_128_output_0_splitncnn_0 /LeakyRelu_128_output_0_splitncnn_1 /LeakyRelu_128_output_0_splitncnn_2 /LeakyRelu_128_output_0_splitncnn_3
Concat           /Concat_128              2 1 /Add_41_output_0_splitncnn_4 /LeakyRelu_128_output_0_splitncnn_3 /Concat_128_output_0
Convolution      /Conv_162                1 1 /Concat_128_output_0 /LeakyRelu_129_output_0 0=32 1=3 4=1 5=1 6=18432 9=2 -23310=1,2.000000e-01
Split            splitncnn_130            1 3 /LeakyRelu_129_output_0 /LeakyRelu_129_output_0_splitncnn_0 /LeakyRelu_129_output_0_splitncnn_1 /LeakyRelu_129_output_0_splitncnn_2
Concat           /Concat_129              3 1 /Add_41_output_0_splitncnn_3 /LeakyRelu_128_output_0_splitncnn_2 /LeakyRelu_129_output_0_splitncnn_2 /Concat_129_output_0
Convolution      /Conv_163                1 1 /Concat_129_output_0 /LeakyRelu_130_output_0 0=32 1=3 4=1 5=1 6=27648 9=2 -23310=1,2.000000e-01
Split            splitncnn_131            1 2 /LeakyRelu_130_output_0 /LeakyRelu_130_output_0_splitncnn_0 /LeakyRelu_130_output_0_splitncnn_1
Concat           /Concat_130              4 1 /Add_41_output_0_splitncnn_2 /LeakyRelu_128_output_0_splitncnn_1 /LeakyRelu_129_output_0_splitncnn_1 /LeakyRelu_130_output_0_splitncnn_1 /Concat_130_output_0
Convolution      /Conv_164                1 1 /Concat_130_output_0 /LeakyRelu_131_output_0 0=32 1=3 4=1 5=1 6=36864 9=2 -23310=1,2.000000e-01
Concat           /Concat_131              5 1 /Add_41_output_0_splitncnn_1 /LeakyRelu_128_output_0_splitncnn_0 /LeakyRelu_129_output_0_splitncnn_0 /LeakyRelu_130_output_0_splitncnn_0 /LeakyRelu_131_output_0 /Concat_131_output_0
Convolution      /Conv_165                1 1 /Concat_131_output_0 /Conv_165_output_0 0=32 1=3 4=1 5=1 6=46080
Eltwise          /Add_42                  2 1 /Conv_165_output_0 /Add_41_output_0_splitncnn_0 /Add_42_output_0 0=1 -23301=2,2.000000e-01,1.000000e+00
Eltwise          /Add_43                  2 1 /Add_42_output_0 /Add_39_output_0_splitncnn_0 /Add_43_output_0 0=1 -23301=2,2.000000e-01,1.000000e+00
Split            splitncnn_132            1 7 /Add_43_output_0 /Add_43_output_0_splitncnn_0 /Add_43_output_0_splitncnn_1 /Add_43_output_0_splitncnn_2 /Add_43_output_0_splitncnn_3 /Add_43_output_0_splitncnn_4 /Add_43_output_0_splitncnn_5 /Add_43_output_0_splitncnn_6
Convolution      /Conv_166                1 1 /Add_43_output_0_splitncnn_6 /LeakyRelu_132_output_0 0=32 1=3 4=1 5=1 6=9216 9=2 -23310=1,2.000000e-01
Split            splitncnn_133            1 4 /LeakyRelu_132_output_0 /LeakyRelu_132_output_0_splitncnn_0 /LeakyRelu_132_output_0_splitncnn_1 /LeakyRelu_132_output_0_splitncnn_2 /LeakyRelu_132_output_0_splitncnn_3
Concat           /Concat_132              2 1 /Add_43_output_0_splitncnn_5 /LeakyRelu_132_output_0_splitncnn_3 /Concat_132_output_0
Convolution      /Conv_167                1 1 /Concat_132_output_0 /LeakyRelu_133_output_0 0=32 1=3 4=1 5=1 6=18432 9=2 -23310=1,2.000000e-01
Split            splitncnn_134            1 3 /LeakyRelu_133_output_0 /LeakyRelu_133_output_0_splitncnn_0 /LeakyRelu_133_output_0_splitncnn_1 /LeakyRelu_133_output_0_splitncnn_2
Concat           /Concat_133              3 1 /Add_43_output_0_splitncnn_4 /LeakyRelu_132_output_0_splitncnn_2 /LeakyRelu_133_output_0_splitncnn_2 /Concat_133_output_0
Convolution      /Conv_168                1 1 /Concat_133_output_0 /LeakyRelu_134_output_0 0=32 1=3 4=1 5=1 6=27648 9=2 -23310=1,2.000000e-01
Split            splitncnn_135            1 2 /LeakyRelu_134_output_0 /LeakyRelu_134_output_0_splitncnn_0 /LeakyRelu_134_output_0_splitncnn_1
Concat           /Concat_134              4 1 /Add_43_output_0_splitncnn_3 /LeakyRelu_132_output_0_splitncnn_1 /LeakyRelu_133_output_0_splitncnn_1 /LeakyRelu_134_output_0_splitncnn_1 /Concat_134_output_0
Convolution      /Conv_169                1 1 /Concat_134_output_0 /LeakyRelu_135_output_0 0=32 1=3 4=1 5=1 6=36864 9=2 -23310=1,2.000000e-01
Concat           /Concat_135              5 1 /Add_43_output_0_splitncnn_2 /LeakyRelu_132_output_0_splitncnn_0 /LeakyRelu_133_output_0_splitncnn_0 /LeakyRelu_134_output_0_splitncnn_0 /LeakyRelu_135_output_0 /Concat_135_output_0
Convolution      /Conv_170                1 1 /Concat_135_output_0 /Conv_170_output_0 0=32 1=3 4=1 5=1 6=46080
Eltwise          /Add_44                  2 1 /Conv_170_output_0 /Add_43_output_0_splitncnn_1 /Add_44_output_0 0=1 -23301=2,2.000000e-01,1.000000e+00
Split            splitncnn_136            1 6 /Add_44_output_0 /Add_44_output_0_splitncnn_0 /Add_44_output_0_splitncnn_1 /Add_44_output_0_splitncnn_2 /Add_44_output_0_splitncnn_3 /Add_44_output_0_splitncnn_4 /Add_44_output_0_splitncnn_5
Convolution      /Conv_171                1 1 /Add_44_output_0_splitncnn_5 /LeakyRelu_136_output_0 0=32 1=3 4=1 5=1 6=9216 9=2 -23310=1,2.000000e-01
Split            splitncnn_137            1 4 /LeakyRelu_136_output_0 /LeakyRelu_136_output_0_splitncnn_0 /LeakyRelu_136_output_0_splitncnn_1 /LeakyRelu_136_output_0_splitncnn_2 /LeakyRelu_136_output_0_splitncnn_3
Concat           /Concat_136              2 1 /Add_44_output_0_splitncnn_4 /LeakyRelu_136_output_0_splitncnn_3 /Concat_136_output_0
Convolution      /Conv_172                1 1 /Concat_136_output_0 /LeakyRelu_137_output_0 0=32 1=3 4=1 5=1 6=18432 9=2 -23310=1,2.000000e-01
Split            splitncnn_138            1 3 /LeakyRelu_137_output_0 /LeakyRelu_137_output_0_splitncnn_0 /LeakyRelu_137_output_0_splitncnn_1 /LeakyRelu_137_output_0_splitncnn_2
Concat           /Concat_137              3 1 /Add_44_output_0_splitncnn_3 /LeakyRelu_136_output_0_splitncnn_2 /LeakyRelu_137_output_0_splitncnn_2 /Concat_137_output_0
Convolution      /Conv_173                1 1 /Concat_137_output_0 /LeakyRelu_138_output_0 0=32 1=3 4=1 5=1 6=27648 9=2 -23310=1,2.000000e-01
Split            splitncnn_139            1 2 /LeakyRelu_138_output_0 /LeakyRelu_138_output_0_splitncnn_0 /LeakyRelu_138_output_0_splitncnn_1
Concat           /Concat_138              4 1 /Add_44_output_0_splitncnn_2 /LeakyRelu_136_output_0_splitncnn_1 /LeakyRelu_137_output_0_splitncnn_1 /LeakyRelu_138_output_0_splitncnn_1 /Concat_138_output_0
Convolution      /Conv_174                1 1 /Concat_138_output_0 /LeakyRelu_139_output_0 0=32 1=3 4=1 5=1 6=36864 9=2 -23310=1,2.000000e-01
Concat           /Concat_139              5 1 /Add_44_output_0_splitncnn_1 /LeakyRelu_136_output_0_splitncnn_0 /LeakyRelu_137_output_0_splitncnn_0 /LeakyRelu_138_output_0_splitncnn_0 /LeakyRelu_139_output_0 /Concat_139_output_0
Convolution      /Conv_175                1 1 /Concat_139_output_0 /Conv_175_output_0 0=32 1=3 4=1 5=1 6=46080
Eltwise          /Add_45                  2 1 /Conv_175_output_0 /Add_44_output_0_splitncnn_0 /Add_45_output_0 0=1 -23301=2,2.000000e-01,1.000000e+00
Split            splitncnn_140            1 6 /Add_45_output_0 /Add_45_output_0_splitncnn_0 /Add_45_output_0_splitncnn_1 /Add_45_output_0_splitncnn_2 /Add_45_output_0_splitncnn_3 /Add_45_output_0_splitncnn_4 /Add_45_output_0_splitncnn_5
Convolution      /Conv_176                1 1 /Add_45_output_0_splitncnn_5 /LeakyRelu_140_output_0 0=32 1=3 4=1 5=1 6=9216 9=2 -23310=1,2.000000e-01
Split            splitncnn_141            1 4 /LeakyRelu_140_output_0 /LeakyRelu_140_output_0_splitncnn_0 /LeakyRelu_140_output_0_splitncnn_1 /LeakyRelu_140_output_0_splitncnn_2 /LeakyRelu_140_output_0_splitncnn_3
Concat           /Concat_140              2 1 /Add_45_output_0_splitncnn_4 /LeakyRelu_140_output_0_splitncnn_3 /Concat_140_output_0
Convolution      /Conv_177                1 1 /Concat_140_output_0 /LeakyRelu_141_output_0 0=32 1=3 4=1 5=1 6=18432 9=2 -23310=1,2.000000e-01
Split            splitncnn_142            1 3 /LeakyRelu_141_output_0 /LeakyRelu_141_output_0_splitncnn_0 /LeakyRelu_141_output_0_splitncnn_1 /LeakyRelu_141_output_0_splitncnn_2
Concat           /Concat_141              3 1 /Add_45_output_0_splitncnn_3 /LeakyRelu_140_output_0_splitncnn_2 /LeakyRelu_141_output_0_splitncnn_2 /Concat_141_output_0
Convolution      /Conv_178                1 1 /Concat_141_output_0 /LeakyRelu_142_output_0 0=32 1=3 4=1 5=1 6=27648 9=2 -23310=1,2.000000e-01
Split            splitncnn_143            1 2 /LeakyRelu_142_output_0 /LeakyRelu_142_output_0_splitncnn_0 /LeakyRelu_142_output_0_splitncnn_1
Concat           /Concat_142              4 1 /Add_45_output_0_splitncnn_2 /LeakyRelu_140_output_0_splitncnn_1 /LeakyRelu_141_output_0_splitncnn_1 /LeakyRelu_142_output_0_splitncnn_1 /Concat_142_output_0
Convolution      /Conv_179                1 1 /Concat_142_output_0 /LeakyRelu_143_output_0 0=32 1=3 4=1 5=1 6=36864 9=2 -23310=1,2.000000e-01
Concat           /Concat_143              5 1 /Add_45_output_0_splitncnn_1 /LeakyRelu_140_output_0_splitncnn_0 /LeakyRelu_141_output_0_splitncnn_0 /LeakyRelu_142_output_0_splitncnn_0 /LeakyRelu_143_output_0 /Concat_143_output_0
Convolution      /Conv_180                1 1 /Concat_143_output_0 /Conv_180_output_0 0=32 1=3 4=1 5=1 6=46080
Eltwise          /Add_46                  2 1 /Conv_180_output_0 /Add_45_output_0_splitncnn_0 /Add_46_output_0 0=1 -23301=2,2.000000e-01,1.000000e+00
Eltwise          /Add_47                  2 1 /Add_46_output_0 /Add_43_output_0_splitncnn_0 /Add_47_output_0 0=1 -23301=2,2.000000e-01,1.000000e+00
Convolution      /Conv_181                1 1 /Add_47_output_0 /Conv_181_output_0 0=32 1=3 4=1 5=1 6=9216
BinaryOp         /Add_48                  2 1 /Conv_output_0_splitncnn_0 /Conv_181_output_0 /Add_48_output_0
Convolution      /Conv_182                1 1 /Add_48_output_0 /LeakyRelu_144_output_0 0=32 1=3 4=1 5=1 6=9216 9=2 -23310=1,2.000000e-01
Convolution      /Conv_183                1 1 /LeakyRelu_144_output_0 output 0=3 1=3 4=1 5=1 6=864
